node {
  name: "load_images/input_producer/Const"
  op: "Const"
  attr {
    key: "_output_shapes"
    value {
      list {
        shape {
          dim {
            size: 3038
          }
        }
      }
    }
  }
  attr {
    key: "dtype"
    value {
      type: DT_STRING
    }
  }
  attr {
    key: "value"
    value {
      tensor {
        dtype: DT_STRING
        tensor_shape {
          dim {
            size: 3038
          }
        }
        string_val: "../data/target/train_images/0000.png"
        string_val: "../data/target/train_images/0001.png"
        string_val: "../data/target/train_images/0002.png"
        string_val: "../data/target/train_images/0003.png"
        string_val: "../data/target/train_images/0004.png"
        string_val: "../data/target/train_images/0005.png"
        string_val: "../data/target/train_images/0006.png"
        string_val: "../data/target/train_images/0007.png"
        string_val: "../data/target/train_images/0008.png"
        string_val: "../data/target/train_images/0009.png"
        string_val: "../data/target/train_images/0010.png"
        string_val: "../data/target/train_images/0011.png"
        string_val: "../data/target/train_images/0012.png"
        string_val: "../data/target/train_images/0013.png"
        string_val: "../data/target/train_images/0014.png"
        string_val: "../data/target/train_images/0015.png"
        string_val: "../data/target/train_images/0016.png"
        string_val: "../data/target/train_images/0017.png"
        string_val: "../data/target/train_images/0018.png"
        string_val: "../data/target/train_images/0019.png"
        string_val: "../data/target/train_images/0020.png"
        string_val: "../data/target/train_images/0021.png"
        string_val: "../data/target/train_images/0022.png"
        string_val: "../data/target/train_images/0023.png"
        string_val: "../data/target/train_images/0024.png"
        string_val: "../data/target/train_images/0025.png"
        string_val: "../data/target/train_images/0026.png"
        string_val: "../data/target/train_images/0027.png"
        string_val: "../data/target/train_images/0028.png"
        string_val: "../data/target/train_images/0029.png"
        string_val: "../data/target/train_images/0030.png"
        string_val: "../data/target/train_images/0031.png"
        string_val: "../data/target/train_images/0032.png"
        string_val: "../data/target/train_images/0033.png"
        string_val: "../data/target/train_images/0034.png"
        string_val: "../data/target/train_images/0035.png"
        string_val: "../data/target/train_images/0036.png"
        string_val: "../data/target/train_images/0037.png"
        string_val: "../data/target/train_images/0038.png"
        string_val: "../data/target/train_images/0039.png"
        string_val: "../data/target/train_images/0040.png"
        string_val: "../data/target/train_images/0041.png"
        string_val: "../data/target/train_images/0042.png"
        string_val: "../data/target/train_images/0043.png"
        string_val: "../data/target/train_images/0044.png"
        string_val: "../data/target/train_images/0045.png"
        string_val: "../data/target/train_images/0046.png"
        string_val: "../data/target/train_images/0047.png"
        string_val: "../data/target/train_images/0048.png"
        string_val: "../data/target/train_images/0049.png"
        string_val: "../data/target/train_images/0050.png"
        string_val: "../data/target/train_images/0051.png"
        string_val: "../data/target/train_images/0052.png"
        string_val: "../data/target/train_images/0053.png"
        string_val: "../data/target/train_images/0054.png"
        string_val: "../data/target/train_images/0055.png"
        string_val: "../data/target/train_images/0056.png"
        string_val: "../data/target/train_images/0057.png"
        string_val: "../data/target/train_images/0058.png"
        string_val: "../data/target/train_images/0059.png"
        string_val: "../data/target/train_images/0060.png"
        string_val: "../data/target/train_images/0061.png"
        string_val: "../data/target/train_images/0062.png"
        string_val: "../data/target/train_images/0063.png"
        string_val: "../data/target/train_images/0064.png"
        string_val: "../data/target/train_images/0065.png"
        string_val: "../data/target/train_images/0066.png"
        string_val: "../data/target/train_images/0067.png"
        string_val: "../data/target/train_images/0068.png"
        string_val: "../data/target/train_images/0069.png"
        string_val: "../data/target/train_images/0070.png"
        string_val: "../data/target/train_images/0071.png"
        string_val: "../data/target/train_images/0072.png"
        string_val: "../data/target/train_images/0073.png"
        string_val: "../data/target/train_images/0074.png"
        string_val: "../data/target/train_images/0075.png"
        string_val: "../data/target/train_images/0076.png"
        string_val: "../data/target/train_images/0077.png"
        string_val: "../data/target/train_images/0078.png"
        string_val: "../data/target/train_images/0079.png"
        string_val: "../data/target/train_images/0080.png"
        string_val: "../data/target/train_images/0081.png"
        string_val: "../data/target/train_images/0082.png"
        string_val: "../data/target/train_images/0083.png"
        string_val: "../data/target/train_images/0084.png"
        string_val: "../data/target/train_images/0085.png"
        string_val: "../data/target/train_images/0086.png"
        string_val: "../data/target/train_images/0087.png"
        string_val: "../data/target/train_images/0088.png"
        string_val: "../data/target/train_images/0089.png"
        string_val: "../data/target/train_images/0090.png"
        string_val: "../data/target/train_images/0091.png"
        string_val: "../data/target/train_images/0092.png"
        string_val: "../data/target/train_images/0093.png"
        string_val: "../data/target/train_images/0094.png"
        string_val: "../data/target/train_images/0095.png"
        string_val: "../data/target/train_images/0096.png"
        string_val: "../data/target/train_images/0097.png"
        string_val: "../data/target/train_images/0098.png"
        string_val: "../data/target/train_images/0099.png"
        string_val: "../data/target/train_images/0100.png"
        string_val: "../data/target/train_images/0101.png"
        string_val: "../data/target/train_images/0102.png"
        string_val: "../data/target/train_images/0103.png"
        string_val: "../data/target/train_images/0104.png"
        string_val: "../data/target/train_images/0105.png"
        string_val: "../data/target/train_images/0106.png"
        string_val: "../data/target/train_images/0107.png"
        string_val: "../data/target/train_images/0108.png"
        string_val: "../data/target/train_images/0109.png"
        string_val: "../data/target/train_images/0110.png"
        string_val: "../data/target/train_images/0111.png"
        string_val: "../data/target/train_images/0112.png"
        string_val: "../data/target/train_images/0113.png"
        string_val: "../data/target/train_images/0114.png"
        string_val: "../data/target/train_images/0115.png"
        string_val: "../data/target/train_images/0116.png"
        string_val: "../data/target/train_images/0117.png"
        string_val: "../data/target/train_images/0118.png"
        string_val: "../data/target/train_images/0119.png"
        string_val: "../data/target/train_images/0120.png"
        string_val: "../data/target/train_images/0121.png"
        string_val: "../data/target/train_images/0122.png"
        string_val: "../data/target/train_images/0123.png"
        string_val: "../data/target/train_images/0124.png"
        string_val: "../data/target/train_images/0125.png"
        string_val: "../data/target/train_images/0126.png"
        string_val: "../data/target/train_images/0127.png"
        string_val: "../data/target/train_images/0128.png"
        string_val: "../data/target/train_images/0129.png"
        string_val: "../data/target/train_images/0130.png"
        string_val: "../data/target/train_images/0131.png"
        string_val: "../data/target/train_images/0132.png"
        string_val: "../data/target/train_images/0133.png"
        string_val: "../data/target/train_images/0134.png"
        string_val: "../data/target/train_images/0135.png"
        string_val: "../data/target/train_images/0136.png"
        string_val: "../data/target/train_images/0137.png"
        string_val: "../data/target/train_images/0138.png"
        string_val: "../data/target/train_images/0139.png"
        string_val: "../data/target/train_images/0140.png"
        string_val: "../data/target/train_images/0141.png"
        string_val: "../data/target/train_images/0142.png"
        string_val: "../data/target/train_images/0143.png"
        string_val: "../data/target/train_images/0144.png"
        string_val: "../data/target/train_images/0145.png"
        string_val: "../data/target/train_images/0146.png"
        string_val: "../data/target/train_images/0147.png"
        string_val: "../data/target/train_images/0148.png"
        string_val: "../data/target/train_images/0149.png"
        string_val: "../data/target/train_images/0150.png"
        string_val: "../data/target/train_images/0151.png"
        string_val: "../data/target/train_images/0152.png"
        string_val: "../data/target/train_images/0153.png"
        string_val: "../data/target/train_images/0154.png"
        string_val: "../data/target/train_images/0155.png"
        string_val: "../data/target/train_images/0156.png"
        string_val: "../data/target/train_images/0157.png"
        string_val: "../data/target/train_images/0158.png"
        string_val: "../data/target/train_images/0159.png"
        string_val: "../data/target/train_images/0160.png"
        string_val: "../data/target/train_images/0161.png"
        string_val: "../data/target/train_images/0162.png"
        string_val: "../data/target/train_images/0163.png"
        string_val: "../data/target/train_images/0164.png"
        string_val: "../data/target/train_images/0165.png"
        string_val: "../data/target/train_images/0166.png"
        string_val: "../data/target/train_images/0167.png"
        string_val: "../data/target/train_images/0168.png"
        string_val: "../data/target/train_images/0169.png"
        string_val: "../data/target/train_images/0170.png"
        string_val: "../data/target/train_images/0171.png"
        string_val: "../data/target/train_images/0172.png"
        string_val: "../data/target/train_images/0173.png"
        string_val: "../data/target/train_images/0174.png"
        string_val: "../data/target/train_images/0175.png"
        string_val: "../data/target/train_images/0176.png"
        string_val: "../data/target/train_images/0177.png"
        string_val: "../data/target/train_images/0178.png"
        string_val: "../data/target/train_images/0179.png"
        string_val: "../data/target/train_images/0180.png"
        string_val: "../data/target/train_images/0181.png"
        string_val: "../data/target/train_images/0182.png"
        string_val: "../data/target/train_images/0183.png"
        string_val: "../data/target/train_images/0184.png"
        string_val: "../data/target/train_images/0185.png"
        string_val: "../data/target/train_images/0186.png"
        string_val: "../data/target/train_images/0187.png"
        string_val: "../data/target/train_images/0188.png"
        string_val: "../data/target/train_images/0189.png"
        string_val: "../data/target/train_images/0190.png"
        string_val: "../data/target/train_images/0191.png"
        string_val: "../data/target/train_images/0192.png"
        string_val: "../data/target/train_images/0193.png"
        string_val: "../data/target/train_images/0194.png"
        string_val: "../data/target/train_images/0195.png"
        string_val: "../data/target/train_images/0196.png"
        string_val: "../data/target/train_images/0197.png"
        string_val: "../data/target/train_images/0198.png"
        string_val: "../data/target/train_images/0199.png"
        string_val: "../data/target/train_images/0200.png"
        string_val: "../data/target/train_images/0201.png"
        string_val: "../data/target/train_images/0202.png"
        string_val: "../data/target/train_images/0203.png"
        string_val: "../data/target/train_images/0204.png"
        string_val: "../data/target/train_images/0205.png"
        string_val: "../data/target/train_images/0206.png"
        string_val: "../data/target/train_images/0207.png"
        string_val: "../data/target/train_images/0208.png"
        string_val: "../data/target/train_images/0209.png"
        string_val: "../data/target/train_images/0210.png"
        string_val: "../data/target/train_images/0211.png"
        string_val: "../data/target/train_images/0212.png"
        string_val: "../data/target/train_images/0213.png"
        string_val: "../data/target/train_images/0214.png"
        string_val: "../data/target/train_images/0215.png"
        string_val: "../data/target/train_images/0216.png"
        string_val: "../data/target/train_images/0217.png"
        string_val: "../data/target/train_images/0218.png"
        string_val: "../data/target/train_images/0219.png"
        string_val: "../data/target/train_images/0220.png"
        string_val: "../data/target/train_images/0221.png"
        string_val: "../data/target/train_images/0222.png"
        string_val: "../data/target/train_images/0223.png"
        string_val: "../data/target/train_images/0224.png"
        string_val: "../data/target/train_images/0225.png"
        string_val: "../data/target/train_images/0226.png"
        string_val: "../data/target/train_images/0227.png"
        string_val: "../data/target/train_images/0228.png"
        string_val: "../data/target/train_images/0229.png"
        string_val: "../data/target/train_images/0230.png"
        string_val: "../data/target/train_images/0231.png"
        string_val: "../data/target/train_images/0232.png"
        string_val: "../data/target/train_images/0233.png"
        string_val: "../data/target/train_images/0234.png"
        string_val: "../data/target/train_images/0235.png"
        string_val: "../data/target/train_images/0236.png"
        string_val: "../data/target/train_images/0237.png"
        string_val: "../data/target/train_images/0238.png"
        string_val: "../data/target/train_images/0239.png"
        string_val: "../data/target/train_images/0240.png"
        string_val: "../data/target/train_images/0241.png"
        string_val: "../data/target/train_images/0242.png"
        string_val: "../data/target/train_images/0243.png"
        string_val: "../data/target/train_images/0244.png"
        string_val: "../data/target/train_images/0245.png"
        string_val: "../data/target/train_images/0246.png"
        string_val: "../data/target/train_images/0247.png"
        string_val: "../data/target/train_images/0248.png"
        string_val: "../data/target/train_images/0249.png"
        string_val: "../data/target/train_images/0250.png"
        string_val: "../data/target/train_images/0251.png"
        string_val: "../data/target/train_images/0252.png"
        string_val: "../data/target/train_images/0253.png"
        string_val: "../data/target/train_images/0254.png"
        string_val: "../data/target/train_images/0255.png"
        string_val: "../data/target/train_images/0256.png"
        string_val: "../data/target/train_images/0257.png"
        string_val: "../data/target/train_images/0258.png"
        string_val: "../data/target/train_images/0259.png"
        string_val: "../data/target/train_images/0260.png"
        string_val: "../data/target/train_images/0261.png"
        string_val: "../data/target/train_images/0262.png"
        string_val: "../data/target/train_images/0263.png"
        string_val: "../data/target/train_images/0264.png"
        string_val: "../data/target/train_images/0265.png"
        string_val: "../data/target/train_images/0266.png"
        string_val: "../data/target/train_images/0267.png"
        string_val: "../data/target/train_images/0268.png"
        string_val: "../data/target/train_images/0269.png"
        string_val: "../data/target/train_images/0270.png"
        string_val: "../data/target/train_images/0271.png"
        string_val: "../data/target/train_images/0272.png"
        string_val: "../data/target/train_images/0273.png"
        string_val: "../data/target/train_images/0274.png"
        string_val: "../data/target/train_images/0275.png"
        string_val: "../data/target/train_images/0276.png"
        string_val: "../data/target/train_images/0277.png"
        string_val: "../data/target/train_images/0278.png"
        string_val: "../data/target/train_images/0279.png"
        string_val: "../data/target/train_images/0280.png"
        string_val: "../data/target/train_images/0281.png"
        string_val: "../data/target/train_images/0282.png"
        string_val: "../data/target/train_images/0283.png"
        string_val: "../data/target/train_images/0284.png"
        string_val: "../data/target/train_images/0285.png"
        string_val: "../data/target/train_images/0286.png"
        string_val: "../data/target/train_images/0287.png"
        string_val: "../data/target/train_images/0288.png"
        string_val: "../data/target/train_images/0289.png"
        string_val: "../data/target/train_images/0290.png"
        string_val: "../data/target/train_images/0291.png"
        string_val: "../data/target/train_images/0292.png"
        string_val: "../data/target/train_images/0293.png"
        string_val: "../data/target/train_images/0294.png"
        string_val: "../data/target/train_images/0295.png"
        string_val: "../data/target/train_images/0296.png"
        string_val: "../data/target/train_images/0297.png"
        string_val: "../data/target/train_images/0298.png"
        string_val: "../data/target/train_images/0299.png"
        string_val: "../data/target/train_images/0300.png"
        string_val: "../data/target/train_images/0301.png"
        string_val: "../data/target/train_images/0302.png"
        string_val: "../data/target/train_images/0303.png"
        string_val: "../data/target/train_images/0304.png"
        string_val: "../data/target/train_images/0305.png"
        string_val: "../data/target/train_images/0306.png"
        string_val: "../data/target/train_images/0307.png"
        string_val: "../data/target/train_images/0308.png"
        string_val: "../data/target/train_images/0309.png"
        string_val: "../data/target/train_images/0310.png"
        string_val: "../data/target/train_images/0311.png"
        string_val: "../data/target/train_images/0312.png"
        string_val: "../data/target/train_images/0313.png"
        string_val: "../data/target/train_images/0314.png"
        string_val: "../data/target/train_images/0315.png"
        string_val: "../data/target/train_images/0316.png"
        string_val: "../data/target/train_images/0317.png"
        string_val: "../data/target/train_images/0318.png"
        string_val: "../data/target/train_images/0319.png"
        string_val: "../data/target/train_images/0320.png"
        string_val: "../data/target/train_images/0321.png"
        string_val: "../data/target/train_images/0322.png"
        string_val: "../data/target/train_images/0323.png"
        string_val: "../data/target/train_images/0324.png"
        string_val: "../data/target/train_images/0325.png"
        string_val: "../data/target/train_images/0326.png"
        string_val: "../data/target/train_images/0327.png"
        string_val: "../data/target/train_images/0328.png"
        string_val: "../data/target/train_images/0329.png"
        string_val: "../data/target/train_images/0330.png"
        string_val: "../data/target/train_images/0331.png"
        string_val: "../data/target/train_images/0332.png"
        string_val: "../data/target/train_images/0333.png"
        string_val: "../data/target/train_images/0334.png"
        string_val: "../data/target/train_images/0335.png"
        string_val: "../data/target/train_images/0336.png"
        string_val: "../data/target/train_images/0337.png"
        string_val: "../data/target/train_images/0338.png"
        string_val: "../data/target/train_images/0339.png"
        string_val: "../data/target/train_images/0340.png"
        string_val: "../data/target/train_images/0341.png"
        string_val: "../data/target/train_images/0342.png"
        string_val: "../data/target/train_images/0343.png"
        string_val: "../data/target/train_images/0344.png"
        string_val: "../data/target/train_images/0345.png"
        string_val: "../data/target/train_images/0346.png"
        string_val: "../data/target/train_images/0347.png"
        string_val: "../data/target/train_images/0348.png"
        string_val: "../data/target/train_images/0349.png"
        string_val: "../data/target/train_images/0350.png"
        string_val: "../data/target/train_images/0351.png"
        string_val: "../data/target/train_images/0352.png"
        string_val: "../data/target/train_images/0353.png"
        string_val: "../data/target/train_images/0354.png"
        string_val: "../data/target/train_images/0355.png"
        string_val: "../data/target/train_images/0356.png"
        string_val: "../data/target/train_images/0357.png"
        string_val: "../data/target/train_images/0358.png"
        string_val: "../data/target/train_images/0359.png"
        string_val: "../data/target/train_images/0360.png"
        string_val: "../data/target/train_images/0361.png"
        string_val: "../data/target/train_images/0362.png"
        string_val: "../data/target/train_images/0363.png"
        string_val: "../data/target/train_images/0364.png"
        string_val: "../data/target/train_images/0365.png"
        string_val: "../data/target/train_images/0366.png"
        string_val: "../data/target/train_images/0367.png"
        string_val: "../data/target/train_images/0368.png"
        string_val: "../data/target/train_images/0369.png"
        string_val: "../data/target/train_images/0370.png"
        string_val: "../data/target/train_images/0371.png"
        string_val: "../data/target/train_images/0372.png"
        string_val: "../data/target/train_images/0373.png"
        string_val: "../data/target/train_images/0374.png"
        string_val: "../data/target/train_images/0375.png"
        string_val: "../data/target/train_images/0376.png"
        string_val: "../data/target/train_images/0377.png"
        string_val: "../data/target/train_images/0378.png"
        string_val: "../data/target/train_images/0379.png"
        string_val: "../data/target/train_images/0380.png"
        string_val: "../data/target/train_images/0381.png"
        string_val: "../data/target/train_images/0382.png"
        string_val: "../data/target/train_images/0383.png"
        string_val: "../data/target/train_images/0384.png"
        string_val: "../data/target/train_images/0385.png"
        string_val: "../data/target/train_images/0386.png"
        string_val: "../data/target/train_images/0387.png"
        string_val: "../data/target/train_images/0388.png"
        string_val: "../data/target/train_images/0389.png"
        string_val: "../data/target/train_images/0390.png"
        string_val: "../data/target/train_images/0391.png"
        string_val: "../data/target/train_images/0392.png"
        string_val: "../data/target/train_images/0393.png"
        string_val: "../data/target/train_images/0394.png"
        string_val: "../data/target/train_images/0395.png"
        string_val: "../data/target/train_images/0396.png"
        string_val: "../data/target/train_images/0397.png"
        string_val: "../data/target/train_images/0398.png"
        string_val: "../data/target/train_images/0399.png"
        string_val: "../data/target/train_images/0400.png"
        string_val: "../data/target/train_images/0401.png"
        string_val: "../data/target/train_images/0402.png"
        string_val: "../data/target/train_images/0403.png"
        string_val: "../data/target/train_images/0404.png"
        string_val: "../data/target/train_images/0405.png"
        string_val: "../data/target/train_images/0406.png"
        string_val: "../data/target/train_images/0407.png"
        string_val: "../data/target/train_images/0408.png"
        string_val: "../data/target/train_images/0409.png"
        string_val: "../data/target/train_images/0410.png"
        string_val: "../data/target/train_images/0411.png"
        string_val: "../data/target/train_images/0412.png"
        string_val: "../data/target/train_images/0413.png"
        string_val: "../data/target/train_images/0414.png"
        string_val: "../data/target/train_images/0415.png"
        string_val: "../data/target/train_images/0416.png"
        string_val: "../data/target/train_images/0417.png"
        string_val: "../data/target/train_images/0418.png"
        string_val: "../data/target/train_images/0419.png"
        string_val: "../data/target/train_images/0420.png"
        string_val: "../data/target/train_images/0421.png"
        string_val: "../data/target/train_images/0422.png"
        string_val: "../data/target/train_images/0423.png"
        string_val: "../data/target/train_images/0424.png"
        string_val: "../data/target/train_images/0425.png"
        string_val: "../data/target/train_images/0426.png"
        string_val: "../data/target/train_images/0427.png"
        string_val: "../data/target/train_images/0428.png"
        string_val: "../data/target/train_images/0429.png"
        string_val: "../data/target/train_images/0430.png"
        string_val: "../data/target/train_images/0431.png"
        string_val: "../data/target/train_images/0432.png"
        string_val: "../data/target/train_images/0433.png"
        string_val: "../data/target/train_images/0434.png"
        string_val: "../data/target/train_images/0435.png"
        string_val: "../data/target/train_images/0436.png"
        string_val: "../data/target/train_images/0437.png"
        string_val: "../data/target/train_images/0438.png"
        string_val: "../data/target/train_images/0439.png"
        string_val: "../data/target/train_images/0440.png"
        string_val: "../data/target/train_images/0441.png"
        string_val: "../data/target/train_images/0442.png"
        string_val: "../data/target/train_images/0443.png"
        string_val: "../data/target/train_images/0444.png"
        string_val: "../data/target/train_images/0445.png"
        string_val: "../data/target/train_images/0446.png"
        string_val: "../data/target/train_images/0447.png"
        string_val: "../data/target/train_images/0448.png"
        string_val: "../data/target/train_images/0449.png"
        string_val: "../data/target/train_images/0450.png"
        string_val: "../data/target/train_images/0451.png"
        string_val: "../data/target/train_images/0452.png"
        string_val: "../data/target/train_images/0453.png"
        string_val: "../data/target/train_images/0454.png"
        string_val: "../data/target/train_images/0455.png"
        string_val: "../data/target/train_images/0456.png"
        string_val: "../data/target/train_images/0457.png"
        string_val: "../data/target/train_images/0458.png"
        string_val: "../data/target/train_images/0459.png"
        string_val: "../data/target/train_images/0460.png"
        string_val: "../data/target/train_images/0461.png"
        string_val: "../data/target/train_images/0462.png"
        string_val: "../data/target/train_images/0463.png"
        string_val: "../data/target/train_images/0464.png"
        string_val: "../data/target/train_images/0465.png"
        string_val: "../data/target/train_images/0466.png"
        string_val: "../data/target/train_images/0467.png"
        string_val: "../data/target/train_images/0468.png"
        string_val: "../data/target/train_images/0469.png"
        string_val: "../data/target/train_images/0470.png"
        string_val: "../data/target/train_images/0471.png"
        string_val: "../data/target/train_images/0472.png"
        string_val: "../data/target/train_images/0473.png"
        string_val: "../data/target/train_images/0474.png"
        string_val: "../data/target/train_images/0475.png"
        string_val: "../data/target/train_images/0476.png"
        string_val: "../data/target/train_images/0477.png"
        string_val: "../data/target/train_images/0478.png"
        string_val: "../data/target/train_images/0479.png"
        string_val: "../data/target/train_images/0480.png"
        string_val: "../data/target/train_images/0481.png"
        string_val: "../data/target/train_images/0482.png"
        string_val: "../data/target/train_images/0483.png"
        string_val: "../data/target/train_images/0484.png"
        string_val: "../data/target/train_images/0485.png"
        string_val: "../data/target/train_images/0486.png"
        string_val: "../data/target/train_images/0487.png"
        string_val: "../data/target/train_images/0488.png"
        string_val: "../data/target/train_images/0489.png"
        string_val: "../data/target/train_images/0490.png"
        string_val: "../data/target/train_images/0491.png"
        string_val: "../data/target/train_images/0492.png"
        string_val: "../data/target/train_images/0493.png"
        string_val: "../data/target/train_images/0494.png"
        string_val: "../data/target/train_images/0495.png"
        string_val: "../data/target/train_images/0496.png"
        string_val: "../data/target/train_images/0497.png"
        string_val: "../data/target/train_images/0498.png"
        string_val: "../data/target/train_images/0499.png"
        string_val: "../data/target/train_images/0500.png"
        string_val: "../data/target/train_images/0501.png"
        string_val: "../data/target/train_images/0502.png"
        string_val: "../data/target/train_images/0503.png"
        string_val: "../data/target/train_images/0504.png"
        string_val: "../data/target/train_images/0505.png"
        string_val: "../data/target/train_images/0506.png"
        string_val: "../data/target/train_images/0507.png"
        string_val: "../data/target/train_images/0508.png"
        string_val: "../data/target/train_images/0509.png"
        string_val: "../data/target/train_images/0510.png"
        string_val: "../data/target/train_images/0511.png"
        string_val: "../data/target/train_images/0512.png"
        string_val: "../data/target/train_images/0513.png"
        string_val: "../data/target/train_images/0514.png"
        string_val: "../data/target/train_images/0515.png"
        string_val: "../data/target/train_images/0516.png"
        string_val: "../data/target/train_images/0517.png"
        string_val: "../data/target/train_images/0518.png"
        string_val: "../data/target/train_images/0519.png"
        string_val: "../data/target/train_images/0520.png"
        string_val: "../data/target/train_images/0521.png"
        string_val: "../data/target/train_images/0522.png"
        string_val: "../data/target/train_images/0523.png"
        string_val: "../data/target/train_images/0524.png"
        string_val: "../data/target/train_images/0525.png"
        string_val: "../data/target/train_images/0526.png"
        string_val: "../data/target/train_images/0527.png"
        string_val: "../data/target/train_images/0528.png"
        string_val: "../data/target/train_images/0529.png"
        string_val: "../data/target/train_images/0530.png"
        string_val: "../data/target/train_images/0531.png"
        string_val: "../data/target/train_images/0532.png"
        string_val: "../data/target/train_images/0533.png"
        string_val: "../data/target/train_images/0534.png"
        string_val: "../data/target/train_images/0535.png"
        string_val: "../data/target/train_images/0536.png"
        string_val: "../data/target/train_images/0537.png"
        string_val: "../data/target/train_images/0538.png"
        string_val: "../data/target/train_images/0539.png"
        string_val: "../data/target/train_images/0540.png"
        string_val: "../data/target/train_images/0541.png"
        string_val: "../data/target/train_images/0542.png"
        string_val: "../data/target/train_images/0543.png"
        string_val: "../data/target/train_images/0544.png"
        string_val: "../data/target/train_images/0545.png"
        string_val: "../data/target/train_images/0546.png"
        string_val: "../data/target/train_images/0547.png"
        string_val: "../data/target/train_images/0548.png"
        string_val: "../data/target/train_images/0549.png"
        string_val: "../data/target/train_images/0550.png"
        string_val: "../data/target/train_images/0551.png"
        string_val: "../data/target/train_images/0552.png"
        string_val: "../data/target/train_images/0553.png"
        string_val: "../data/target/train_images/0554.png"
        string_val: "../data/target/train_images/0555.png"
        string_val: "../data/target/train_images/0556.png"
        string_val: "../data/target/train_images/0557.png"
        string_val: "../data/target/train_images/0558.png"
        string_val: "../data/target/train_images/0559.png"
        string_val: "../data/target/train_images/0560.png"
        string_val: "../data/target/train_images/0561.png"
        string_val: "../data/target/train_images/0562.png"
        string_val: "../data/target/train_images/0563.png"
        string_val: "../data/target/train_images/0564.png"
        string_val: "../data/target/train_images/0565.png"
        string_val: "../data/target/train_images/0566.png"
        string_val: "../data/target/train_images/0567.png"
        string_val: "../data/target/train_images/0568.png"
        string_val: "../data/target/train_images/0569.png"
        string_val: "../data/target/train_images/0570.png"
        string_val: "../data/target/train_images/0571.png"
        string_val: "../data/target/train_images/0572.png"
        string_val: "../data/target/train_images/0573.png"
        string_val: "../data/target/train_images/0574.png"
        string_val: "../data/target/train_images/0575.png"
        string_val: "../data/target/train_images/0576.png"
        string_val: "../data/target/train_images/0577.png"
        string_val: "../data/target/train_images/0578.png"
        string_val: "../data/target/train_images/0579.png"
        string_val: "../data/target/train_images/0580.png"
        string_val: "../data/target/train_images/0581.png"
        string_val: "../data/target/train_images/0582.png"
        string_val: "../data/target/train_images/0583.png"
        string_val: "../data/target/train_images/0584.png"
        string_val: "../data/target/train_images/0585.png"
        string_val: "../data/target/train_images/0586.png"
        string_val: "../data/target/train_images/0587.png"
        string_val: "../data/target/train_images/0588.png"
        string_val: "../data/target/train_images/0589.png"
        string_val: "../data/target/train_images/0590.png"
        string_val: "../data/target/train_images/0591.png"
        string_val: "../data/target/train_images/0592.png"
        string_val: "../data/target/train_images/0593.png"
        string_val: "../data/target/train_images/0594.png"
        string_val: "../data/target/train_images/0595.png"
        string_val: "../data/target/train_images/0596.png"
        string_val: "../data/target/train_images/0597.png"
        string_val: "../data/target/train_images/0598.png"
        string_val: "../data/target/train_images/0599.png"
        string_val: "../data/target/train_images/0600.png"
        string_val: "../data/target/train_images/0601.png"
        string_val: "../data/target/train_images/0602.png"
        string_val: "../data/target/train_images/0603.png"
        string_val: "../data/target/train_images/0604.png"
        string_val: "../data/target/train_images/0605.png"
        string_val: "../data/target/train_images/0606.png"
        string_val: "../data/target/train_images/0607.png"
        string_val: "../data/target/train_images/0608.png"
        string_val: "../data/target/train_images/0609.png"
        string_val: "../data/target/train_images/0610.png"
        string_val: "../data/target/train_images/0611.png"
        string_val: "../data/target/train_images/0612.png"
        string_val: "../data/target/train_images/0613.png"
        string_val: "../data/target/train_images/0614.png"
        string_val: "../data/target/train_images/0615.png"
        string_val: "../data/target/train_images/0616.png"
        string_val: "../data/target/train_images/0617.png"
        string_val: "../data/target/train_images/0618.png"
        string_val: "../data/target/train_images/0619.png"
        string_val: "../data/target/train_images/0620.png"
        string_val: "../data/target/train_images/0621.png"
        string_val: "../data/target/train_images/0622.png"
        string_val: "../data/target/train_images/0623.png"
        string_val: "../data/target/train_images/0624.png"
        string_val: "../data/target/train_images/0625.png"
        string_val: "../data/target/train_images/0626.png"
        string_val: "../data/target/train_images/0627.png"
        string_val: "../data/target/train_images/0628.png"
        string_val: "../data/target/train_images/0629.png"
        string_val: "../data/target/train_images/0630.png"
        string_val: "../data/target/train_images/0631.png"
        string_val: "../data/target/train_images/0632.png"
        string_val: "../data/target/train_images/0633.png"
        string_val: "../data/target/train_images/0634.png"
        string_val: "../data/target/train_images/0635.png"
        string_val: "../data/target/train_images/0636.png"
        string_val: "../data/target/train_images/0637.png"
        string_val: "../data/target/train_images/0638.png"
        string_val: "../data/target/train_images/0639.png"
        string_val: "../data/target/train_images/0640.png"
        string_val: "../data/target/train_images/0641.png"
        string_val: "../data/target/train_images/0642.png"
        string_val: "../data/target/train_images/0643.png"
        string_val: "../data/target/train_images/0644.png"
        string_val: "../data/target/train_images/0645.png"
        string_val: "../data/target/train_images/0646.png"
        string_val: "../data/target/train_images/0647.png"
        string_val: "../data/target/train_images/0648.png"
        string_val: "../data/target/train_images/0649.png"
        string_val: "../data/target/train_images/0650.png"
        string_val: "../data/target/train_images/0651.png"
        string_val: "../data/target/train_images/0652.png"
        string_val: "../data/target/train_images/0653.png"
        string_val: "../data/target/train_images/0654.png"
        string_val: "../data/target/train_images/0655.png"
        string_val: "../data/target/train_images/0656.png"
        string_val: "../data/target/train_images/0657.png"
        string_val: "../data/target/train_images/0658.png"
        string_val: "../data/target/train_images/0659.png"
        string_val: "../data/target/train_images/0660.png"
        string_val: "../data/target/train_images/0661.png"
        string_val: "../data/target/train_images/0662.png"
        string_val: "../data/target/train_images/0663.png"
        string_val: "../data/target/train_images/0664.png"
        string_val: "../data/target/train_images/0665.png"
        string_val: "../data/target/train_images/0666.png"
        string_val: "../data/target/train_images/0667.png"
        string_val: "../data/target/train_images/0668.png"
        string_val: "../data/target/train_images/0669.png"
        string_val: "../data/target/train_images/0670.png"
        string_val: "../data/target/train_images/0671.png"
        string_val: "../data/target/train_images/0672.png"
        string_val: "../data/target/train_images/0673.png"
        string_val: "../data/target/train_images/0674.png"
        string_val: "../data/target/train_images/0675.png"
        string_val: "../data/target/train_images/0676.png"
        string_val: "../data/target/train_images/0677.png"
        string_val: "../data/target/train_images/0678.png"
        string_val: "../data/target/train_images/0679.png"
        string_val: "../data/target/train_images/0680.png"
        string_val: "../data/target/train_images/0681.png"
        string_val: "../data/target/train_images/0682.png"
        string_val: "../data/target/train_images/0683.png"
        string_val: "../data/target/train_images/0684.png"
        string_val: "../data/target/train_images/0685.png"
        string_val: "../data/target/train_images/0686.png"
        string_val: "../data/target/train_images/0687.png"
        string_val: "../data/target/train_images/0688.png"
        string_val: "../data/target/train_images/0689.png"
        string_val: "../data/target/train_images/0690.png"
        string_val: "../data/target/train_images/0691.png"
        string_val: "../data/target/train_images/0692.png"
        string_val: "../data/target/train_images/0693.png"
        string_val: "../data/target/train_images/0694.png"
        string_val: "../data/target/train_images/0695.png"
        string_val: "../data/target/train_images/0696.png"
        string_val: "../data/target/train_images/0697.png"
        string_val: "../data/target/train_images/0698.png"
        string_val: "../data/target/train_images/0699.png"
        string_val: "../data/target/train_images/0700.png"
        string_val: "../data/target/train_images/0701.png"
        string_val: "../data/target/train_images/0702.png"
        string_val: "../data/target/train_images/0703.png"
        string_val: "../data/target/train_images/0704.png"
        string_val: "../data/target/train_images/0705.png"
        string_val: "../data/target/train_images/0706.png"
        string_val: "../data/target/train_images/0707.png"
        string_val: "../data/target/train_images/0708.png"
        string_val: "../data/target/train_images/0709.png"
        string_val: "../data/target/train_images/0710.png"
        string_val: "../data/target/train_images/0711.png"
        string_val: "../data/target/train_images/0712.png"
        string_val: "../data/target/train_images/0713.png"
        string_val: "../data/target/train_images/0714.png"
        string_val: "../data/target/train_images/0715.png"
        string_val: "../data/target/train_images/0716.png"
        string_val: "../data/target/train_images/0717.png"
        string_val: "../data/target/train_images/0718.png"
        string_val: "../data/target/train_images/0719.png"
        string_val: "../data/target/train_images/0720.png"
        string_val: "../data/target/train_images/0721.png"
        string_val: "../data/target/train_images/0722.png"
        string_val: "../data/target/train_images/0723.png"
        string_val: "../data/target/train_images/0724.png"
        string_val: "../data/target/train_images/0725.png"
        string_val: "../data/target/train_images/0726.png"
        string_val: "../data/target/train_images/0727.png"
        string_val: "../data/target/train_images/0728.png"
        string_val: "../data/target/train_images/0729.png"
        string_val: "../data/target/train_images/0730.png"
        string_val: "../data/target/train_images/0731.png"
        string_val: "../data/target/train_images/0732.png"
        string_val: "../data/target/train_images/0733.png"
        string_val: "../data/target/train_images/0734.png"
        string_val: "../data/target/train_images/0735.png"
        string_val: "../data/target/train_images/0736.png"
        string_val: "../data/target/train_images/0737.png"
        string_val: "../data/target/train_images/0738.png"
        string_val: "../data/target/train_images/0739.png"
        string_val: "../data/target/train_images/0740.png"
        string_val: "../data/target/train_images/0741.png"
        string_val: "../data/target/train_images/0742.png"
        string_val: "../data/target/train_images/0743.png"
        string_val: "../data/target/train_images/0744.png"
        string_val: "../data/target/train_images/0745.png"
        string_val: "../data/target/train_images/0746.png"
        string_val: "../data/target/train_images/0747.png"
        string_val: "../data/target/train_images/0748.png"
        string_val: "../data/target/train_images/0749.png"
        string_val: "../data/target/train_images/0750.png"
        string_val: "../data/target/train_images/0751.png"
        string_val: "../data/target/train_images/0752.png"
        string_val: "../data/target/train_images/0753.png"
        string_val: "../data/target/train_images/0754.png"
        string_val: "../data/target/train_images/0755.png"
        string_val: "../data/target/train_images/0756.png"
        string_val: "../data/target/train_images/0757.png"
        string_val: "../data/target/train_images/0758.png"
        string_val: "../data/target/train_images/0759.png"
        string_val: "../data/target/train_images/0760.png"
        string_val: "../data/target/train_images/0761.png"
        string_val: "../data/target/train_images/0762.png"
        string_val: "../data/target/train_images/0763.png"
        string_val: "../data/target/train_images/0764.png"
        string_val: "../data/target/train_images/0765.png"
        string_val: "../data/target/train_images/0766.png"
        string_val: "../data/target/train_images/0767.png"
        string_val: "../data/target/train_images/0768.png"
        string_val: "../data/target/train_images/0769.png"
        string_val: "../data/target/train_images/0770.png"
        string_val: "../data/target/train_images/0771.png"
        string_val: "../data/target/train_images/0772.png"
        string_val: "../data/target/train_images/0773.png"
        string_val: "../data/target/train_images/0774.png"
        string_val: "../data/target/train_images/0775.png"
        string_val: "../data/target/train_images/0776.png"
        string_val: "../data/target/train_images/0777.png"
        string_val: "../data/target/train_images/0778.png"
        string_val: "../data/target/train_images/0779.png"
        string_val: "../data/target/train_images/0780.png"
        string_val: "../data/target/train_images/0781.png"
        string_val: "../data/target/train_images/0782.png"
        string_val: "../data/target/train_images/0783.png"
        string_val: "../data/target/train_images/0784.png"
        string_val: "../data/target/train_images/0785.png"
        string_val: "../data/target/train_images/0786.png"
        string_val: "../data/target/train_images/0787.png"
        string_val: "../data/target/train_images/0788.png"
        string_val: "../data/target/train_images/0789.png"
        string_val: "../data/target/train_images/0790.png"
        string_val: "../data/target/train_images/0791.png"
        string_val: "../data/target/train_images/0792.png"
        string_val: "../data/target/train_images/0793.png"
        string_val: "../data/target/train_images/0794.png"
        string_val: "../data/target/train_images/0795.png"
        string_val: "../data/target/train_images/0796.png"
        string_val: "../data/target/train_images/0797.png"
        string_val: "../data/target/train_images/0798.png"
        string_val: "../data/target/train_images/0799.png"
        string_val: "../data/target/train_images/0800.png"
        string_val: "../data/target/train_images/0801.png"
        string_val: "../data/target/train_images/0802.png"
        string_val: "../data/target/train_images/0803.png"
        string_val: "../data/target/train_images/0804.png"
        string_val: "../data/target/train_images/0805.png"
        string_val: "../data/target/train_images/0806.png"
        string_val: "../data/target/train_images/0807.png"
        string_val: "../data/target/train_images/0808.png"
        string_val: "../data/target/train_images/0809.png"
        string_val: "../data/target/train_images/0810.png"
        string_val: "../data/target/train_images/0811.png"
        string_val: "../data/target/train_images/0812.png"
        string_val: "../data/target/train_images/0813.png"
        string_val: "../data/target/train_images/0814.png"
        string_val: "../data/target/train_images/0815.png"
        string_val: "../data/target/train_images/0816.png"
        string_val: "../data/target/train_images/0817.png"
        string_val: "../data/target/train_images/0818.png"
        string_val: "../data/target/train_images/0819.png"
        string_val: "../data/target/train_images/0820.png"
        string_val: "../data/target/train_images/0821.png"
        string_val: "../data/target/train_images/0822.png"
        string_val: "../data/target/train_images/0823.png"
        string_val: "../data/target/train_images/0824.png"
        string_val: "../data/target/train_images/0825.png"
        string_val: "../data/target/train_images/0826.png"
        string_val: "../data/target/train_images/0827.png"
        string_val: "../data/target/train_images/0828.png"
        string_val: "../data/target/train_images/0829.png"
        string_val: "../data/target/train_images/0830.png"
        string_val: "../data/target/train_images/0831.png"
        string_val: "../data/target/train_images/0832.png"
        string_val: "../data/target/train_images/0833.png"
        string_val: "../data/target/train_images/0834.png"
        string_val: "../data/target/train_images/0835.png"
        string_val: "../data/target/train_images/0836.png"
        string_val: "../data/target/train_images/0837.png"
        string_val: "../data/target/train_images/0838.png"
        string_val: "../data/target/train_images/0839.png"
        string_val: "../data/target/train_images/0840.png"
        string_val: "../data/target/train_images/0841.png"
        string_val: "../data/target/train_images/0842.png"
        string_val: "../data/target/train_images/0843.png"
        string_val: "../data/target/train_images/0844.png"
        string_val: "../data/target/train_images/0845.png"
        string_val: "../data/target/train_images/0846.png"
        string_val: "../data/target/train_images/0847.png"
        string_val: "../data/target/train_images/0848.png"
        string_val: "../data/target/train_images/0849.png"
        string_val: "../data/target/train_images/0850.png"
        string_val: "../data/target/train_images/0851.png"
        string_val: "../data/target/train_images/0852.png"
        string_val: "../data/target/train_images/0853.png"
        string_val: "../data/target/train_images/0854.png"
        string_val: "../data/target/train_images/0855.png"
        string_val: "../data/target/train_images/0856.png"
        string_val: "../data/target/train_images/0857.png"
        string_val: "../data/target/train_images/0858.png"
        string_val: "../data/target/train_images/0859.png"
        string_val: "../data/target/train_images/0860.png"
        string_val: "../data/target/train_images/0861.png"
        string_val: "../data/target/train_images/0862.png"
        string_val: "../data/target/train_images/0863.png"
        string_val: "../data/target/train_images/0864.png"
        string_val: "../data/target/train_images/0865.png"
        string_val: "../data/target/train_images/0866.png"
        string_val: "../data/target/train_images/0867.png"
        string_val: "../data/target/train_images/0868.png"
        string_val: "../data/target/train_images/0869.png"
        string_val: "../data/target/train_images/0870.png"
        string_val: "../data/target/train_images/0871.png"
        string_val: "../data/target/train_images/0872.png"
        string_val: "../data/target/train_images/0873.png"
        string_val: "../data/target/train_images/0874.png"
        string_val: "../data/target/train_images/0875.png"
        string_val: "../data/target/train_images/0876.png"
        string_val: "../data/target/train_images/0877.png"
        string_val: "../data/target/train_images/0878.png"
        string_val: "../data/target/train_images/0879.png"
        string_val: "../data/target/train_images/0880.png"
        string_val: "../data/target/train_images/0881.png"
        string_val: "../data/target/train_images/0882.png"
        string_val: "../data/target/train_images/0883.png"
        string_val: "../data/target/train_images/0884.png"
        string_val: "../data/target/train_images/0885.png"
        string_val: "../data/target/train_images/0886.png"
        string_val: "../data/target/train_images/0887.png"
        string_val: "../data/target/train_images/0888.png"
        string_val: "../data/target/train_images/0889.png"
        string_val: "../data/target/train_images/0890.png"
        string_val: "../data/target/train_images/0891.png"
        string_val: "../data/target/train_images/0892.png"
        string_val: "../data/target/train_images/0893.png"
        string_val: "../data/target/train_images/0894.png"
        string_val: "../data/target/train_images/0895.png"
        string_val: "../data/target/train_images/0896.png"
        string_val: "../data/target/train_images/0897.png"
        string_val: "../data/target/train_images/0898.png"
        string_val: "../data/target/train_images/0899.png"
        string_val: "../data/target/train_images/0900.png"
        string_val: "../data/target/train_images/0901.png"
        string_val: "../data/target/train_images/0902.png"
        string_val: "../data/target/train_images/0903.png"
        string_val: "../data/target/train_images/0904.png"
        string_val: "../data/target/train_images/0905.png"
        string_val: "../data/target/train_images/0906.png"
        string_val: "../data/target/train_images/0907.png"
        string_val: "../data/target/train_images/0908.png"
        string_val: "../data/target/train_images/0909.png"
        string_val: "../data/target/train_images/0910.png"
        string_val: "../data/target/train_images/0911.png"
        string_val: "../data/target/train_images/0912.png"
        string_val: "../data/target/train_images/0913.png"
        string_val: "../data/target/train_images/0914.png"
        string_val: "../data/target/train_images/0915.png"
        string_val: "../data/target/train_images/0916.png"
        string_val: "../data/target/train_images/0917.png"
        string_val: "../data/target/train_images/0918.png"
        string_val: "../data/target/train_images/0919.png"
        string_val: "../data/target/train_images/0920.png"
        string_val: "../data/target/train_images/0921.png"
        string_val: "../data/target/train_images/0922.png"
        string_val: "../data/target/train_images/0923.png"
        string_val: "../data/target/train_images/0924.png"
        string_val: "../data/target/train_images/0925.png"
        string_val: "../data/target/train_images/0926.png"
        string_val: "../data/target/train_images/0927.png"
        string_val: "../data/target/train_images/0928.png"
        string_val: "../data/target/train_images/0929.png"
        string_val: "../data/target/train_images/0930.png"
        string_val: "../data/target/train_images/0931.png"
        string_val: "../data/target/train_images/0932.png"
        string_val: "../data/target/train_images/0933.png"
        string_val: "../data/target/train_images/0934.png"
        string_val: "../data/target/train_images/0935.png"
        string_val: "../data/target/train_images/0936.png"
        string_val: "../data/target/train_images/0937.png"
        string_val: "../data/target/train_images/0938.png"
        string_val: "../data/target/train_images/0939.png"
        string_val: "../data/target/train_images/0940.png"
        string_val: "../data/target/train_images/0941.png"
        string_val: "../data/target/train_images/0942.png"
        string_val: "../data/target/train_images/0943.png"
        string_val: "../data/target/train_images/0944.png"
        string_val: "../data/target/train_images/0945.png"
        string_val: "../data/target/train_images/0946.png"
        string_val: "../data/target/train_images/0947.png"
        string_val: "../data/target/train_images/0948.png"
        string_val: "../data/target/train_images/0949.png"
        string_val: "../data/target/train_images/0950.png"
        string_val: "../data/target/train_images/0951.png"
        string_val: "../data/target/train_images/0952.png"
        string_val: "../data/target/train_images/0953.png"
        string_val: "../data/target/train_images/0954.png"
        string_val: "../data/target/train_images/0955.png"
        string_val: "../data/target/train_images/0956.png"
        string_val: "../data/target/train_images/0957.png"
        string_val: "../data/target/train_images/0958.png"
        string_val: "../data/target/train_images/0959.png"
        string_val: "../data/target/train_images/0960.png"
        string_val: "../data/target/train_images/0961.png"
        string_val: "../data/target/train_images/0962.png"
        string_val: "../data/target/train_images/0963.png"
        string_val: "../data/target/train_images/0964.png"
        string_val: "../data/target/train_images/0965.png"
        string_val: "../data/target/train_images/0966.png"
        string_val: "../data/target/train_images/0967.png"
        string_val: "../data/target/train_images/0968.png"
        string_val: "../data/target/train_images/0969.png"
        string_val: "../data/target/train_images/0970.png"
        string_val: "../data/target/train_images/0971.png"
        string_val: "../data/target/train_images/0972.png"
        string_val: "../data/target/train_images/0973.png"
        string_val: "../data/target/train_images/0974.png"
        string_val: "../data/target/train_images/0975.png"
        string_val: "../data/target/train_images/0976.png"
        string_val: "../data/target/train_images/0977.png"
        string_val: "../data/target/train_images/0978.png"
        string_val: "../data/target/train_images/0979.png"
        string_val: "../data/target/train_images/0980.png"
        string_val: "../data/target/train_images/0981.png"
        string_val: "../data/target/train_images/0982.png"
        string_val: "../data/target/train_images/0983.png"
        string_val: "../data/target/train_images/0984.png"
        string_val: "../data/target/train_images/0985.png"
        string_val: "../data/target/train_images/0986.png"
        string_val: "../data/target/train_images/0987.png"
        string_val: "../data/target/train_images/0988.png"
        string_val: "../data/target/train_images/0989.png"
        string_val: "../data/target/train_images/0990.png"
        string_val: "../data/target/train_images/0991.png"
        string_val: "../data/target/train_images/0992.png"
        string_val: "../data/target/train_images/0993.png"
        string_val: "../data/target/train_images/0994.png"
        string_val: "../data/target/train_images/0995.png"
        string_val: "../data/target/train_images/0996.png"
        string_val: "../data/target/train_images/0997.png"
        string_val: "../data/target/train_images/0998.png"
        string_val: "../data/target/train_images/0999.png"
        string_val: "../data/target/train_images/1000.png"
        string_val: "../data/target/train_images/1001.png"
        string_val: "../data/target/train_images/1002.png"
        string_val: "../data/target/train_images/1003.png"
        string_val: "../data/target/train_images/1004.png"
        string_val: "../data/target/train_images/1005.png"
        string_val: "../data/target/train_images/1006.png"
        string_val: "../data/target/train_images/1007.png"
        string_val: "../data/target/train_images/1008.png"
        string_val: "../data/target/train_images/1009.png"
        string_val: "../data/target/train_images/1010.png"
        string_val: "../data/target/train_images/1011.png"
        string_val: "../data/target/train_images/1012.png"
        string_val: "../data/target/train_images/1013.png"
        string_val: "../data/target/train_images/1014.png"
        string_val: "../data/target/train_images/1015.png"
        string_val: "../data/target/train_images/1016.png"
        string_val: "../data/target/train_images/1017.png"
        string_val: "../data/target/train_images/1018.png"
        string_val: "../data/target/train_images/1019.png"
        string_val: "../data/target/train_images/1020.png"
        string_val: "../data/target/train_images/1021.png"
        string_val: "../data/target/train_images/1022.png"
        string_val: "../data/target/train_images/1023.png"
        string_val: "../data/target/train_images/1024.png"
        string_val: "../data/target/train_images/1025.png"
        string_val: "../data/target/train_images/1026.png"
        string_val: "../data/target/train_images/1027.png"
        string_val: "../data/target/train_images/1028.png"
        string_val: "../data/target/train_images/1029.png"
        string_val: "../data/target/train_images/1030.png"
        string_val: "../data/target/train_images/1031.png"
        string_val: "../data/target/train_images/1032.png"
        string_val: "../data/target/train_images/1033.png"
        string_val: "../data/target/train_images/1034.png"
        string_val: "../data/target/train_images/1035.png"
        string_val: "../data/target/train_images/1036.png"
        string_val: "../data/target/train_images/1037.png"
        string_val: "../data/target/train_images/1038.png"
        string_val: "../data/target/train_images/1039.png"
        string_val: "../data/target/train_images/1040.png"
        string_val: "../data/target/train_images/1041.png"
        string_val: "../data/target/train_images/1042.png"
        string_val: "../data/target/train_images/1043.png"
        string_val: "../data/target/train_images/1044.png"
        string_val: "../data/target/train_images/1045.png"
        string_val: "../data/target/train_images/1046.png"
        string_val: "../data/target/train_images/1047.png"
        string_val: "../data/target/train_images/1048.png"
        string_val: "../data/target/train_images/1049.png"
        string_val: "../data/target/train_images/1050.png"
        string_val: "../data/target/train_images/1051.png"
        string_val: "../data/target/train_images/1052.png"
        string_val: "../data/target/train_images/1053.png"
        string_val: "../data/target/train_images/1054.png"
        string_val: "../data/target/train_images/1055.png"
        string_val: "../data/target/train_images/1056.png"
        string_val: "../data/target/train_images/1057.png"
        string_val: "../data/target/train_images/1058.png"
        string_val: "../data/target/train_images/1059.png"
        string_val: "../data/target/train_images/1060.png"
        string_val: "../data/target/train_images/1061.png"
        string_val: "../data/target/train_images/1062.png"
        string_val: "../data/target/train_images/1063.png"
        string_val: "../data/target/train_images/1064.png"
        string_val: "../data/target/train_images/1065.png"
        string_val: "../data/target/train_images/1066.png"
        string_val: "../data/target/train_images/1067.png"
        string_val: "../data/target/train_images/1068.png"
        string_val: "../data/target/train_images/1069.png"
        string_val: "../data/target/train_images/1070.png"
        string_val: "../data/target/train_images/1071.png"
        string_val: "../data/target/train_images/1072.png"
        string_val: "../data/target/train_images/1073.png"
        string_val: "../data/target/train_images/1074.png"
        string_val: "../data/target/train_images/1075.png"
        string_val: "../data/target/train_images/1076.png"
        string_val: "../data/target/train_images/1077.png"
        string_val: "../data/target/train_images/1078.png"
        string_val: "../data/target/train_images/1079.png"
        string_val: "../data/target/train_images/1080.png"
        string_val: "../data/target/train_images/1081.png"
        string_val: "../data/target/train_images/1082.png"
        string_val: "../data/target/train_images/1083.png"
        string_val: "../data/target/train_images/1084.png"
        string_val: "../data/target/train_images/1085.png"
        string_val: "../data/target/train_images/1086.png"
        string_val: "../data/target/train_images/1087.png"
        string_val: "../data/target/train_images/1088.png"
        string_val: "../data/target/train_images/1089.png"
        string_val: "../data/target/train_images/1090.png"
        string_val: "../data/target/train_images/1091.png"
        string_val: "../data/target/train_images/1092.png"
        string_val: "../data/target/train_images/1093.png"
        string_val: "../data/target/train_images/1094.png"
        string_val: "../data/target/train_images/1095.png"
        string_val: "../data/target/train_images/1096.png"
        string_val: "../data/target/train_images/1097.png"
        string_val: "../data/target/train_images/1098.png"
        string_val: "../data/target/train_images/1099.png"
        string_val: "../data/target/train_images/1100.png"
        string_val: "../data/target/train_images/1101.png"
        string_val: "../data/target/train_images/1102.png"
        string_val: "../data/target/train_images/1103.png"
        string_val: "../data/target/train_images/1104.png"
        string_val: "../data/target/train_images/1105.png"
        string_val: "../data/target/train_images/1106.png"
        string_val: "../data/target/train_images/1107.png"
        string_val: "../data/target/train_images/1108.png"
        string_val: "../data/target/train_images/1109.png"
        string_val: "../data/target/train_images/1110.png"
        string_val: "../data/target/train_images/1111.png"
        string_val: "../data/target/train_images/1112.png"
        string_val: "../data/target/train_images/1113.png"
        string_val: "../data/target/train_images/1114.png"
        string_val: "../data/target/train_images/1115.png"
        string_val: "../data/target/train_images/1116.png"
        string_val: "../data/target/train_images/1117.png"
        string_val: "../data/target/train_images/1118.png"
        string_val: "../data/target/train_images/1119.png"
        string_val: "../data/target/train_images/1120.png"
        string_val: "../data/target/train_images/1121.png"
        string_val: "../data/target/train_images/1122.png"
        string_val: "../data/target/train_images/1123.png"
        string_val: "../data/target/train_images/1124.png"
        string_val: "../data/target/train_images/1125.png"
        string_val: "../data/target/train_images/1126.png"
        string_val: "../data/target/train_images/1127.png"
        string_val: "../data/target/train_images/1128.png"
        string_val: "../data/target/train_images/1129.png"
        string_val: "../data/target/train_images/1130.png"
        string_val: "../data/target/train_images/1131.png"
        string_val: "../data/target/train_images/1132.png"
        string_val: "../data/target/train_images/1133.png"
        string_val: "../data/target/train_images/1134.png"
        string_val: "../data/target/train_images/1135.png"
        string_val: "../data/target/train_images/1136.png"
        string_val: "../data/target/train_images/1137.png"
        string_val: "../data/target/train_images/1138.png"
        string_val: "../data/target/train_images/1139.png"
        string_val: "../data/target/train_images/1140.png"
        string_val: "../data/target/train_images/1141.png"
        string_val: "../data/target/train_images/1142.png"
        string_val: "../data/target/train_images/1143.png"
        string_val: "../data/target/train_images/1144.png"
        string_val: "../data/target/train_images/1145.png"
        string_val: "../data/target/train_images/1146.png"
        string_val: "../data/target/train_images/1147.png"
        string_val: "../data/target/train_images/1148.png"
        string_val: "../data/target/train_images/1149.png"
        string_val: "../data/target/train_images/1150.png"
        string_val: "../data/target/train_images/1151.png"
        string_val: "../data/target/train_images/1152.png"
        string_val: "../data/target/train_images/1153.png"
        string_val: "../data/target/train_images/1154.png"
        string_val: "../data/target/train_images/1155.png"
        string_val: "../data/target/train_images/1156.png"
        string_val: "../data/target/train_images/1157.png"
        string_val: "../data/target/train_images/1158.png"
        string_val: "../data/target/train_images/1159.png"
        string_val: "../data/target/train_images/1160.png"
        string_val: "../data/target/train_images/1161.png"
        string_val: "../data/target/train_images/1162.png"
        string_val: "../data/target/train_images/1163.png"
        string_val: "../data/target/train_images/1164.png"
        string_val: "../data/target/train_images/1165.png"
        string_val: "../data/target/train_images/1166.png"
        string_val: "../data/target/train_images/1167.png"
        string_val: "../data/target/train_images/1168.png"
        string_val: "../data/target/train_images/1169.png"
        string_val: "../data/target/train_images/1170.png"
        string_val: "../data/target/train_images/1171.png"
        string_val: "../data/target/train_images/1172.png"
        string_val: "../data/target/train_images/1173.png"
        string_val: "../data/target/train_images/1174.png"
        string_val: "../data/target/train_images/1175.png"
        string_val: "../data/target/train_images/1176.png"
        string_val: "../data/target/train_images/1177.png"
        string_val: "../data/target/train_images/1178.png"
        string_val: "../data/target/train_images/1179.png"
        string_val: "../data/target/train_images/1180.png"
        string_val: "../data/target/train_images/1181.png"
        string_val: "../data/target/train_images/1182.png"
        string_val: "../data/target/train_images/1183.png"
        string_val: "../data/target/train_images/1184.png"
        string_val: "../data/target/train_images/1185.png"
        string_val: "../data/target/train_images/1186.png"
        string_val: "../data/target/train_images/1187.png"
        string_val: "../data/target/train_images/1188.png"
        string_val: "../data/target/train_images/1189.png"
        string_val: "../data/target/train_images/1190.png"
        string_val: "../data/target/train_images/1191.png"
        string_val: "../data/target/train_images/1192.png"
        string_val: "../data/target/train_images/1193.png"
        string_val: "../data/target/train_images/1194.png"
        string_val: "../data/target/train_images/1195.png"
        string_val: "../data/target/train_images/1196.png"
        string_val: "../data/target/train_images/1197.png"
        string_val: "../data/target/train_images/1198.png"
        string_val: "../data/target/train_images/1199.png"
        string_val: "../data/target/train_images/1200.png"
        string_val: "../data/target/train_images/1201.png"
        string_val: "../data/target/train_images/1202.png"
        string_val: "../data/target/train_images/1203.png"
        string_val: "../data/target/train_images/1204.png"
        string_val: "../data/target/train_images/1205.png"
        string_val: "../data/target/train_images/1206.png"
        string_val: "../data/target/train_images/1207.png"
        string_val: "../data/target/train_images/1208.png"
        string_val: "../data/target/train_images/1209.png"
        string_val: "../data/target/train_images/1210.png"
        string_val: "../data/target/train_images/1211.png"
        string_val: "../data/target/train_images/1212.png"
        string_val: "../data/target/train_images/1213.png"
        string_val: "../data/target/train_images/1214.png"
        string_val: "../data/target/train_images/1215.png"
        string_val: "../data/target/train_images/1216.png"
        string_val: "../data/target/train_images/1217.png"
        string_val: "../data/target/train_images/1218.png"
        string_val: "../data/target/train_images/1219.png"
        string_val: "../data/target/train_images/1220.png"
        string_val: "../data/target/train_images/1221.png"
        string_val: "../data/target/train_images/1222.png"
        string_val: "../data/target/train_images/1223.png"
        string_val: "../data/target/train_images/1224.png"
        string_val: "../data/target/train_images/1225.png"
        string_val: "../data/target/train_images/1226.png"
        string_val: "../data/target/train_images/1227.png"
        string_val: "../data/target/train_images/1228.png"
        string_val: "../data/target/train_images/1229.png"
        string_val: "../data/target/train_images/1230.png"
        string_val: "../data/target/train_images/1231.png"
        string_val: "../data/target/train_images/1232.png"
        string_val: "../data/target/train_images/1233.png"
        string_val: "../data/target/train_images/1234.png"
        string_val: "../data/target/train_images/1235.png"
        string_val: "../data/target/train_images/1236.png"
        string_val: "../data/target/train_images/1237.png"
        string_val: "../data/target/train_images/1238.png"
        string_val: "../data/target/train_images/1239.png"
        string_val: "../data/target/train_images/1240.png"
        string_val: "../data/target/train_images/1241.png"
        string_val: "../data/target/train_images/1242.png"
        string_val: "../data/target/train_images/1243.png"
        string_val: "../data/target/train_images/1244.png"
        string_val: "../data/target/train_images/1245.png"
        string_val: "../data/target/train_images/1246.png"
        string_val: "../data/target/train_images/1247.png"
        string_val: "../data/target/train_images/1248.png"
        string_val: "../data/target/train_images/1249.png"
        string_val: "../data/target/train_images/1250.png"
        string_val: "../data/target/train_images/1251.png"
        string_val: "../data/target/train_images/1252.png"
        string_val: "../data/target/train_images/1253.png"
        string_val: "../data/target/train_images/1254.png"
        string_val: "../data/target/train_images/1255.png"
        string_val: "../data/target/train_images/1256.png"
        string_val: "../data/target/train_images/1257.png"
        string_val: "../data/target/train_images/1258.png"
        string_val: "../data/target/train_images/1259.png"
        string_val: "../data/target/train_images/1260.png"
        string_val: "../data/target/train_images/1261.png"
        string_val: "../data/target/train_images/1262.png"
        string_val: "../data/target/train_images/1263.png"
        string_val: "../data/target/train_images/1264.png"
        string_val: "../data/target/train_images/1265.png"
        string_val: "../data/target/train_images/1266.png"
        string_val: "../data/target/train_images/1267.png"
        string_val: "../data/target/train_images/1268.png"
        string_val: "../data/target/train_images/1269.png"
        string_val: "../data/target/train_images/1270.png"
        string_val: "../data/target/train_images/1271.png"
        string_val: "../data/target/train_images/1272.png"
        string_val: "../data/target/train_images/1273.png"
        string_val: "../data/target/train_images/1274.png"
        string_val: "../data/target/train_images/1275.png"
        string_val: "../data/target/train_images/1276.png"
        string_val: "../data/target/train_images/1277.png"
        string_val: "../data/target/train_images/1278.png"
        string_val: "../data/target/train_images/1279.png"
        string_val: "../data/target/train_images/1280.png"
        string_val: "../data/target/train_images/1281.png"
        string_val: "../data/target/train_images/1282.png"
        string_val: "../data/target/train_images/1283.png"
        string_val: "../data/target/train_images/1284.png"
        string_val: "../data/target/train_images/1285.png"
        string_val: "../data/target/train_images/1286.png"
        string_val: "../data/target/train_images/1287.png"
        string_val: "../data/target/train_images/1288.png"
        string_val: "../data/target/train_images/1289.png"
        string_val: "../data/target/train_images/1290.png"
        string_val: "../data/target/train_images/1291.png"
        string_val: "../data/target/train_images/1292.png"
        string_val: "../data/target/train_images/1293.png"
        string_val: "../data/target/train_images/1294.png"
        string_val: "../data/target/train_images/1295.png"
        string_val: "../data/target/train_images/1296.png"
        string_val: "../data/target/train_images/1297.png"
        string_val: "../data/target/train_images/1298.png"
        string_val: "../data/target/train_images/1299.png"
        string_val: "../data/target/train_images/1300.png"
        string_val: "../data/target/train_images/1301.png"
        string_val: "../data/target/train_images/1302.png"
        string_val: "../data/target/train_images/1303.png"
        string_val: "../data/target/train_images/1304.png"
        string_val: "../data/target/train_images/1305.png"
        string_val: "../data/target/train_images/1306.png"
        string_val: "../data/target/train_images/1307.png"
        string_val: "../data/target/train_images/1308.png"
        string_val: "../data/target/train_images/1309.png"
        string_val: "../data/target/train_images/1310.png"
        string_val: "../data/target/train_images/1311.png"
        string_val: "../data/target/train_images/1312.png"
        string_val: "../data/target/train_images/1313.png"
        string_val: "../data/target/train_images/1314.png"
        string_val: "../data/target/train_images/1315.png"
        string_val: "../data/target/train_images/1316.png"
        string_val: "../data/target/train_images/1317.png"
        string_val: "../data/target/train_images/1318.png"
        string_val: "../data/target/train_images/1319.png"
        string_val: "../data/target/train_images/1320.png"
        string_val: "../data/target/train_images/1321.png"
        string_val: "../data/target/train_images/1322.png"
        string_val: "../data/target/train_images/1323.png"
        string_val: "../data/target/train_images/1324.png"
        string_val: "../data/target/train_images/1325.png"
        string_val: "../data/target/train_images/1326.png"
        string_val: "../data/target/train_images/1327.png"
        string_val: "../data/target/train_images/1328.png"
        string_val: "../data/target/train_images/1329.png"
        string_val: "../data/target/train_images/1330.png"
        string_val: "../data/target/train_images/1331.png"
        string_val: "../data/target/train_images/1332.png"
        string_val: "../data/target/train_images/1333.png"
        string_val: "../data/target/train_images/1334.png"
        string_val: "../data/target/train_images/1335.png"
        string_val: "../data/target/train_images/1336.png"
        string_val: "../data/target/train_images/1337.png"
        string_val: "../data/target/train_images/1338.png"
        string_val: "../data/target/train_images/1339.png"
        string_val: "../data/target/train_images/1340.png"
        string_val: "../data/target/train_images/1341.png"
        string_val: "../data/target/train_images/1342.png"
        string_val: "../data/target/train_images/1343.png"
        string_val: "../data/target/train_images/1344.png"
        string_val: "../data/target/train_images/1345.png"
        string_val: "../data/target/train_images/1346.png"
        string_val: "../data/target/train_images/1347.png"
        string_val: "../data/target/train_images/1348.png"
        string_val: "../data/target/train_images/1349.png"
        string_val: "../data/target/train_images/1350.png"
        string_val: "../data/target/train_images/1351.png"
        string_val: "../data/target/train_images/1352.png"
        string_val: "../data/target/train_images/1353.png"
        string_val: "../data/target/train_images/1354.png"
        string_val: "../data/target/train_images/1355.png"
        string_val: "../data/target/train_images/1356.png"
        string_val: "../data/target/train_images/1357.png"
        string_val: "../data/target/train_images/1358.png"
        string_val: "../data/target/train_images/1359.png"
        string_val: "../data/target/train_images/1360.png"
        string_val: "../data/target/train_images/1361.png"
        string_val: "../data/target/train_images/1362.png"
        string_val: "../data/target/train_images/1363.png"
        string_val: "../data/target/train_images/1364.png"
        string_val: "../data/target/train_images/1365.png"
        string_val: "../data/target/train_images/1366.png"
        string_val: "../data/target/train_images/1367.png"
        string_val: "../data/target/train_images/1368.png"
        string_val: "../data/target/train_images/1369.png"
        string_val: "../data/target/train_images/1370.png"
        string_val: "../data/target/train_images/1371.png"
        string_val: "../data/target/train_images/1372.png"
        string_val: "../data/target/train_images/1373.png"
        string_val: "../data/target/train_images/1374.png"
        string_val: "../data/target/train_images/1375.png"
        string_val: "../data/target/train_images/1376.png"
        string_val: "../data/target/train_images/1377.png"
        string_val: "../data/target/train_images/1378.png"
        string_val: "../data/target/train_images/1379.png"
        string_val: "../data/target/train_images/1380.png"
        string_val: "../data/target/train_images/1381.png"
        string_val: "../data/target/train_images/1382.png"
        string_val: "../data/target/train_images/1383.png"
        string_val: "../data/target/train_images/1384.png"
        string_val: "../data/target/train_images/1385.png"
        string_val: "../data/target/train_images/1386.png"
        string_val: "../data/target/train_images/1387.png"
        string_val: "../data/target/train_images/1388.png"
        string_val: "../data/target/train_images/1389.png"
        string_val: "../data/target/train_images/1390.png"
        string_val: "../data/target/train_images/1391.png"
        string_val: "../data/target/train_images/1392.png"
        string_val: "../data/target/train_images/1393.png"
        string_val: "../data/target/train_images/1394.png"
        string_val: "../data/target/train_images/1395.png"
        string_val: "../data/target/train_images/1396.png"
        string_val: "../data/target/train_images/1397.png"
        string_val: "../data/target/train_images/1398.png"
        string_val: "../data/target/train_images/1399.png"
        string_val: "../data/target/train_images/1400.png"
        string_val: "../data/target/train_images/1401.png"
        string_val: "../data/target/train_images/1402.png"
        string_val: "../data/target/train_images/1403.png"
        string_val: "../data/target/train_images/1404.png"
        string_val: "../data/target/train_images/1405.png"
        string_val: "../data/target/train_images/1406.png"
        string_val: "../data/target/train_images/1407.png"
        string_val: "../data/target/train_images/1408.png"
        string_val: "../data/target/train_images/1409.png"
        string_val: "../data/target/train_images/1410.png"
        string_val: "../data/target/train_images/1411.png"
        string_val: "../data/target/train_images/1412.png"
        string_val: "../data/target/train_images/1413.png"
        string_val: "../data/target/train_images/1414.png"
        string_val: "../data/target/train_images/1415.png"
        string_val: "../data/target/train_images/1416.png"
        string_val: "../data/target/train_images/1417.png"
        string_val: "../data/target/train_images/1418.png"
        string_val: "../data/target/train_images/1419.png"
        string_val: "../data/target/train_images/1420.png"
        string_val: "../data/target/train_images/1421.png"
        string_val: "../data/target/train_images/1422.png"
        string_val: "../data/target/train_images/1423.png"
        string_val: "../data/target/train_images/1424.png"
        string_val: "../data/target/train_images/1425.png"
        string_val: "../data/target/train_images/1426.png"
        string_val: "../data/target/train_images/1427.png"
        string_val: "../data/target/train_images/1428.png"
        string_val: "../data/target/train_images/1429.png"
        string_val: "../data/target/train_images/1430.png"
        string_val: "../data/target/train_images/1431.png"
        string_val: "../data/target/train_images/1432.png"
        string_val: "../data/target/train_images/1433.png"
        string_val: "../data/target/train_images/1434.png"
        string_val: "../data/target/train_images/1435.png"
        string_val: "../data/target/train_images/1436.png"
        string_val: "../data/target/train_images/1437.png"
        string_val: "../data/target/train_images/1438.png"
        string_val: "../data/target/train_images/1439.png"
        string_val: "../data/target/train_images/1440.png"
        string_val: "../data/target/train_images/1441.png"
        string_val: "../data/target/train_images/1442.png"
        string_val: "../data/target/train_images/1443.png"
        string_val: "../data/target/train_images/1444.png"
        string_val: "../data/target/train_images/1445.png"
        string_val: "../data/target/train_images/1446.png"
        string_val: "../data/target/train_images/1447.png"
        string_val: "../data/target/train_images/1448.png"
        string_val: "../data/target/train_images/1449.png"
        string_val: "../data/target/train_images/1450.png"
        string_val: "../data/target/train_images/1451.png"
        string_val: "../data/target/train_images/1452.png"
        string_val: "../data/target/train_images/1453.png"
        string_val: "../data/target/train_images/1454.png"
        string_val: "../data/target/train_images/1455.png"
        string_val: "../data/target/train_images/1456.png"
        string_val: "../data/target/train_images/1457.png"
        string_val: "../data/target/train_images/1458.png"
        string_val: "../data/target/train_images/1459.png"
        string_val: "../data/target/train_images/1460.png"
        string_val: "../data/target/train_images/1461.png"
        string_val: "../data/target/train_images/1462.png"
        string_val: "../data/target/train_images/1463.png"
        string_val: "../data/target/train_images/1464.png"
        string_val: "../data/target/train_images/1465.png"
        string_val: "../data/target/train_images/1466.png"
        string_val: "../data/target/train_images/1467.png"
        string_val: "../data/target/train_images/1468.png"
        string_val: "../data/target/train_images/1469.png"
        string_val: "../data/target/train_images/1470.png"
        string_val: "../data/target/train_images/1471.png"
        string_val: "../data/target/train_images/1472.png"
        string_val: "../data/target/train_images/1473.png"
        string_val: "../data/target/train_images/1474.png"
        string_val: "../data/target/train_images/1475.png"
        string_val: "../data/target/train_images/1476.png"
        string_val: "../data/target/train_images/1477.png"
        string_val: "../data/target/train_images/1478.png"
        string_val: "../data/target/train_images/1479.png"
        string_val: "../data/target/train_images/1480.png"
        string_val: "../data/target/train_images/1481.png"
        string_val: "../data/target/train_images/1482.png"
        string_val: "../data/target/train_images/1483.png"
        string_val: "../data/target/train_images/1484.png"
        string_val: "../data/target/train_images/1485.png"
        string_val: "../data/target/train_images/1486.png"
        string_val: "../data/target/train_images/1487.png"
        string_val: "../data/target/train_images/1488.png"
        string_val: "../data/target/train_images/1489.png"
        string_val: "../data/target/train_images/1490.png"
        string_val: "../data/target/train_images/1491.png"
        string_val: "../data/target/train_images/1492.png"
        string_val: "../data/target/train_images/1493.png"
        string_val: "../data/target/train_images/1494.png"
        string_val: "../data/target/train_images/1495.png"
        string_val: "../data/target/train_images/1496.png"
        string_val: "../data/target/train_images/1497.png"
        string_val: "../data/target/train_images/1498.png"
        string_val: "../data/target/train_images/1499.png"
        string_val: "../data/target/train_images/1500.png"
        string_val: "../data/target/train_images/1501.png"
        string_val: "../data/target/train_images/1502.png"
        string_val: "../data/target/train_images/1503.png"
        string_val: "../data/target/train_images/1504.png"
        string_val: "../data/target/train_images/1505.png"
        string_val: "../data/target/train_images/1506.png"
        string_val: "../data/target/train_images/1507.png"
        string_val: "../data/target/train_images/1508.png"
        string_val: "../data/target/train_images/1509.png"
        string_val: "../data/target/train_images/1510.png"
        string_val: "../data/target/train_images/1511.png"
        string_val: "../data/target/train_images/1512.png"
        string_val: "../data/target/train_images/1513.png"
        string_val: "../data/target/train_images/1514.png"
        string_val: "../data/target/train_images/1515.png"
        string_val: "../data/target/train_images/1516.png"
        string_val: "../data/target/train_images/1517.png"
        string_val: "../data/target/train_images/1518.png"
        string_val: "../data/target/train_images/1519.png"
        string_val: "../data/target/train_images/1520.png"
        string_val: "../data/target/train_images/1521.png"
        string_val: "../data/target/train_images/1522.png"
        string_val: "../data/target/train_images/1523.png"
        string_val: "../data/target/train_images/1524.png"
        string_val: "../data/target/train_images/1525.png"
        string_val: "../data/target/train_images/1526.png"
        string_val: "../data/target/train_images/1527.png"
        string_val: "../data/target/train_images/1528.png"
        string_val: "../data/target/train_images/1529.png"
        string_val: "../data/target/train_images/1530.png"
        string_val: "../data/target/train_images/1531.png"
        string_val: "../data/target/train_images/1532.png"
        string_val: "../data/target/train_images/1533.png"
        string_val: "../data/target/train_images/1534.png"
        string_val: "../data/target/train_images/1535.png"
        string_val: "../data/target/train_images/1536.png"
        string_val: "../data/target/train_images/1537.png"
        string_val: "../data/target/train_images/1538.png"
        string_val: "../data/target/train_images/1539.png"
        string_val: "../data/target/train_images/1540.png"
        string_val: "../data/target/train_images/1541.png"
        string_val: "../data/target/train_images/1542.png"
        string_val: "../data/target/train_images/1543.png"
        string_val: "../data/target/train_images/1544.png"
        string_val: "../data/target/train_images/1545.png"
        string_val: "../data/target/train_images/1546.png"
        string_val: "../data/target/train_images/1547.png"
        string_val: "../data/target/train_images/1548.png"
        string_val: "../data/target/train_images/1549.png"
        string_val: "../data/target/train_images/1550.png"
        string_val: "../data/target/train_images/1551.png"
        string_val: "../data/target/train_images/1552.png"
        string_val: "../data/target/train_images/1553.png"
        string_val: "../data/target/train_images/1554.png"
        string_val: "../data/target/train_images/1555.png"
        string_val: "../data/target/train_images/1556.png"
        string_val: "../data/target/train_images/1557.png"
        string_val: "../data/target/train_images/1558.png"
        string_val: "../data/target/train_images/1559.png"
        string_val: "../data/target/train_images/1560.png"
        string_val: "../data/target/train_images/1561.png"
        string_val: "../data/target/train_images/1562.png"
        string_val: "../data/target/train_images/1563.png"
        string_val: "../data/target/train_images/1564.png"
        string_val: "../data/target/train_images/1565.png"
        string_val: "../data/target/train_images/1566.png"
        string_val: "../data/target/train_images/1567.png"
        string_val: "../data/target/train_images/1568.png"
        string_val: "../data/target/train_images/1569.png"
        string_val: "../data/target/train_images/1570.png"
        string_val: "../data/target/train_images/1571.png"
        string_val: "../data/target/train_images/1572.png"
        string_val: "../data/target/train_images/1573.png"
        string_val: "../data/target/train_images/1574.png"
        string_val: "../data/target/train_images/1575.png"
        string_val: "../data/target/train_images/1576.png"
        string_val: "../data/target/train_images/1577.png"
        string_val: "../data/target/train_images/1578.png"
        string_val: "../data/target/train_images/1579.png"
        string_val: "../data/target/train_images/1580.png"
        string_val: "../data/target/train_images/1581.png"
        string_val: "../data/target/train_images/1582.png"
        string_val: "../data/target/train_images/1583.png"
        string_val: "../data/target/train_images/1584.png"
        string_val: "../data/target/train_images/1585.png"
        string_val: "../data/target/train_images/1586.png"
        string_val: "../data/target/train_images/1587.png"
        string_val: "../data/target/train_images/1588.png"
        string_val: "../data/target/train_images/1589.png"
        string_val: "../data/target/train_images/1590.png"
        string_val: "../data/target/train_images/1591.png"
        string_val: "../data/target/train_images/1592.png"
        string_val: "../data/target/train_images/1593.png"
        string_val: "../data/target/train_images/1594.png"
        string_val: "../data/target/train_images/1595.png"
        string_val: "../data/target/train_images/1596.png"
        string_val: "../data/target/train_images/1597.png"
        string_val: "../data/target/train_images/1598.png"
        string_val: "../data/target/train_images/1599.png"
        string_val: "../data/target/train_images/1600.png"
        string_val: "../data/target/train_images/1601.png"
        string_val: "../data/target/train_images/1602.png"
        string_val: "../data/target/train_images/1603.png"
        string_val: "../data/target/train_images/1604.png"
        string_val: "../data/target/train_images/1605.png"
        string_val: "../data/target/train_images/1606.png"
        string_val: "../data/target/train_images/1607.png"
        string_val: "../data/target/train_images/1608.png"
        string_val: "../data/target/train_images/1609.png"
        string_val: "../data/target/train_images/1610.png"
        string_val: "../data/target/train_images/1611.png"
        string_val: "../data/target/train_images/1612.png"
        string_val: "../data/target/train_images/1613.png"
        string_val: "../data/target/train_images/1614.png"
        string_val: "../data/target/train_images/1615.png"
        string_val: "../data/target/train_images/1616.png"
        string_val: "../data/target/train_images/1617.png"
        string_val: "../data/target/train_images/1618.png"
        string_val: "../data/target/train_images/1619.png"
        string_val: "../data/target/train_images/1620.png"
        string_val: "../data/target/train_images/1621.png"
        string_val: "../data/target/train_images/1622.png"
        string_val: "../data/target/train_images/1623.png"
        string_val: "../data/target/train_images/1624.png"
        string_val: "../data/target/train_images/1625.png"
        string_val: "../data/target/train_images/1626.png"
        string_val: "../data/target/train_images/1627.png"
        string_val: "../data/target/train_images/1628.png"
        string_val: "../data/target/train_images/1629.png"
        string_val: "../data/target/train_images/1630.png"
        string_val: "../data/target/train_images/1631.png"
        string_val: "../data/target/train_images/1632.png"
        string_val: "../data/target/train_images/1633.png"
        string_val: "../data/target/train_images/1634.png"
        string_val: "../data/target/train_images/1635.png"
        string_val: "../data/target/train_images/1636.png"
        string_val: "../data/target/train_images/1637.png"
        string_val: "../data/target/train_images/1638.png"
        string_val: "../data/target/train_images/1639.png"
        string_val: "../data/target/train_images/1640.png"
        string_val: "../data/target/train_images/1641.png"
        string_val: "../data/target/train_images/1642.png"
        string_val: "../data/target/train_images/1643.png"
        string_val: "../data/target/train_images/1644.png"
        string_val: "../data/target/train_images/1645.png"
        string_val: "../data/target/train_images/1646.png"
        string_val: "../data/target/train_images/1647.png"
        string_val: "../data/target/train_images/1648.png"
        string_val: "../data/target/train_images/1649.png"
        string_val: "../data/target/train_images/1650.png"
        string_val: "../data/target/train_images/1651.png"
        string_val: "../data/target/train_images/1652.png"
        string_val: "../data/target/train_images/1653.png"
        string_val: "../data/target/train_images/1654.png"
        string_val: "../data/target/train_images/1655.png"
        string_val: "../data/target/train_images/1656.png"
        string_val: "../data/target/train_images/1657.png"
        string_val: "../data/target/train_images/1658.png"
        string_val: "../data/target/train_images/1659.png"
        string_val: "../data/target/train_images/1660.png"
        string_val: "../data/target/train_images/1661.png"
        string_val: "../data/target/train_images/1662.png"
        string_val: "../data/target/train_images/1663.png"
        string_val: "../data/target/train_images/1664.png"
        string_val: "../data/target/train_images/1665.png"
        string_val: "../data/target/train_images/1666.png"
        string_val: "../data/target/train_images/1667.png"
        string_val: "../data/target/train_images/1668.png"
        string_val: "../data/target/train_images/1669.png"
        string_val: "../data/target/train_images/1670.png"
        string_val: "../data/target/train_images/1671.png"
        string_val: "../data/target/train_images/1672.png"
        string_val: "../data/target/train_images/1673.png"
        string_val: "../data/target/train_images/1674.png"
        string_val: "../data/target/train_images/1675.png"
        string_val: "../data/target/train_images/1676.png"
        string_val: "../data/target/train_images/1677.png"
        string_val: "../data/target/train_images/1678.png"
        string_val: "../data/target/train_images/1679.png"
        string_val: "../data/target/train_images/1680.png"
        string_val: "../data/target/train_images/1681.png"
        string_val: "../data/target/train_images/1682.png"
        string_val: "../data/target/train_images/1683.png"
        string_val: "../data/target/train_images/1684.png"
        string_val: "../data/target/train_images/1685.png"
        string_val: "../data/target/train_images/1686.png"
        string_val: "../data/target/train_images/1687.png"
        string_val: "../data/target/train_images/1688.png"
        string_val: "../data/target/train_images/1689.png"
        string_val: "../data/target/train_images/1690.png"
        string_val: "../data/target/train_images/1691.png"
        string_val: "../data/target/train_images/1692.png"
        string_val: "../data/target/train_images/1693.png"
        string_val: "../data/target/train_images/1694.png"
        string_val: "../data/target/train_images/1695.png"
        string_val: "../data/target/train_images/1696.png"
        string_val: "../data/target/train_images/1697.png"
        string_val: "../data/target/train_images/1698.png"
        string_val: "../data/target/train_images/1699.png"
        string_val: "../data/target/train_images/1700.png"
        string_val: "../data/target/train_images/1701.png"
        string_val: "../data/target/train_images/1702.png"
        string_val: "../data/target/train_images/1703.png"
        string_val: "../data/target/train_images/1704.png"
        string_val: "../data/target/train_images/1705.png"
        string_val: "../data/target/train_images/1706.png"
        string_val: "../data/target/train_images/1707.png"
        string_val: "../data/target/train_images/1708.png"
        string_val: "../data/target/train_images/1709.png"
        string_val: "../data/target/train_images/1710.png"
        string_val: "../data/target/train_images/1711.png"
        string_val: "../data/target/train_images/1712.png"
        string_val: "../data/target/train_images/1713.png"
        string_val: "../data/target/train_images/1714.png"
        string_val: "../data/target/train_images/1715.png"
        string_val: "../data/target/train_images/1716.png"
        string_val: "../data/target/train_images/1717.png"
        string_val: "../data/target/train_images/1718.png"
        string_val: "../data/target/train_images/1719.png"
        string_val: "../data/target/train_images/1720.png"
        string_val: "../data/target/train_images/1721.png"
        string_val: "../data/target/train_images/1722.png"
        string_val: "../data/target/train_images/1723.png"
        string_val: "../data/target/train_images/1724.png"
        string_val: "../data/target/train_images/1725.png"
        string_val: "../data/target/train_images/1726.png"
        string_val: "../data/target/train_images/1727.png"
        string_val: "../data/target/train_images/1728.png"
        string_val: "../data/target/train_images/1729.png"
        string_val: "../data/target/train_images/1730.png"
        string_val: "../data/target/train_images/1731.png"
        string_val: "../data/target/train_images/1732.png"
        string_val: "../data/target/train_images/1733.png"
        string_val: "../data/target/train_images/1734.png"
        string_val: "../data/target/train_images/1735.png"
        string_val: "../data/target/train_images/1736.png"
        string_val: "../data/target/train_images/1737.png"
        string_val: "../data/target/train_images/1738.png"
        string_val: "../data/target/train_images/1739.png"
        string_val: "../data/target/train_images/1740.png"
        string_val: "../data/target/train_images/1741.png"
        string_val: "../data/target/train_images/1742.png"
        string_val: "../data/target/train_images/1743.png"
        string_val: "../data/target/train_images/1744.png"
        string_val: "../data/target/train_images/1745.png"
        string_val: "../data/target/train_images/1746.png"
        string_val: "../data/target/train_images/1747.png"
        string_val: "../data/target/train_images/1748.png"
        string_val: "../data/target/train_images/1749.png"
        string_val: "../data/target/train_images/1750.png"
        string_val: "../data/target/train_images/1751.png"
        string_val: "../data/target/train_images/1752.png"
        string_val: "../data/target/train_images/1753.png"
        string_val: "../data/target/train_images/1754.png"
        string_val: "../data/target/train_images/1755.png"
        string_val: "../data/target/train_images/1756.png"
        string_val: "../data/target/train_images/1757.png"
        string_val: "../data/target/train_images/1758.png"
        string_val: "../data/target/train_images/1759.png"
        string_val: "../data/target/train_images/1760.png"
        string_val: "../data/target/train_images/1761.png"
        string_val: "../data/target/train_images/1762.png"
        string_val: "../data/target/train_images/1763.png"
        string_val: "../data/target/train_images/1764.png"
        string_val: "../data/target/train_images/1765.png"
        string_val: "../data/target/train_images/1766.png"
        string_val: "../data/target/train_images/1767.png"
        string_val: "../data/target/train_images/1768.png"
        string_val: "../data/target/train_images/1769.png"
        string_val: "../data/target/train_images/1770.png"
        string_val: "../data/target/train_images/1771.png"
        string_val: "../data/target/train_images/1772.png"
        string_val: "../data/target/train_images/1773.png"
        string_val: "../data/target/train_images/1774.png"
        string_val: "../data/target/train_images/1775.png"
        string_val: "../data/target/train_images/1776.png"
        string_val: "../data/target/train_images/1777.png"
        string_val: "../data/target/train_images/1778.png"
        string_val: "../data/target/train_images/1779.png"
        string_val: "../data/target/train_images/1780.png"
        string_val: "../data/target/train_images/1781.png"
        string_val: "../data/target/train_images/1782.png"
        string_val: "../data/target/train_images/1783.png"
        string_val: "../data/target/train_images/1784.png"
        string_val: "../data/target/train_images/1785.png"
        string_val: "../data/target/train_images/1786.png"
        string_val: "../data/target/train_images/1787.png"
        string_val: "../data/target/train_images/1788.png"
        string_val: "../data/target/train_images/1789.png"
        string_val: "../data/target/train_images/1790.png"
        string_val: "../data/target/train_images/1791.png"
        string_val: "../data/target/train_images/1792.png"
        string_val: "../data/target/train_images/1793.png"
        string_val: "../data/target/train_images/1794.png"
        string_val: "../data/target/train_images/1795.png"
        string_val: "../data/target/train_images/1796.png"
        string_val: "../data/target/train_images/1797.png"
        string_val: "../data/target/train_images/1798.png"
        string_val: "../data/target/train_images/1799.png"
        string_val: "../data/target/train_images/1800.png"
        string_val: "../data/target/train_images/1801.png"
        string_val: "../data/target/train_images/1802.png"
        string_val: "../data/target/train_images/1803.png"
        string_val: "../data/target/train_images/1804.png"
        string_val: "../data/target/train_images/1805.png"
        string_val: "../data/target/train_images/1806.png"
        string_val: "../data/target/train_images/1807.png"
        string_val: "../data/target/train_images/1808.png"
        string_val: "../data/target/train_images/1809.png"
        string_val: "../data/target/train_images/1810.png"
        string_val: "../data/target/train_images/1811.png"
        string_val: "../data/target/train_images/1812.png"
        string_val: "../data/target/train_images/1813.png"
        string_val: "../data/target/train_images/1814.png"
        string_val: "../data/target/train_images/1815.png"
        string_val: "../data/target/train_images/1816.png"
        string_val: "../data/target/train_images/1817.png"
        string_val: "../data/target/train_images/1818.png"
        string_val: "../data/target/train_images/1819.png"
        string_val: "../data/target/train_images/1820.png"
        string_val: "../data/target/train_images/1821.png"
        string_val: "../data/target/train_images/1822.png"
        string_val: "../data/target/train_images/1823.png"
        string_val: "../data/target/train_images/1824.png"
        string_val: "../data/target/train_images/1825.png"
        string_val: "../data/target/train_images/1826.png"
        string_val: "../data/target/train_images/1827.png"
        string_val: "../data/target/train_images/1828.png"
        string_val: "../data/target/train_images/1829.png"
        string_val: "../data/target/train_images/1830.png"
        string_val: "../data/target/train_images/1831.png"
        string_val: "../data/target/train_images/1832.png"
        string_val: "../data/target/train_images/1833.png"
        string_val: "../data/target/train_images/1834.png"
        string_val: "../data/target/train_images/1835.png"
        string_val: "../data/target/train_images/1836.png"
        string_val: "../data/target/train_images/1837.png"
        string_val: "../data/target/train_images/1838.png"
        string_val: "../data/target/train_images/1839.png"
        string_val: "../data/target/train_images/1840.png"
        string_val: "../data/target/train_images/1841.png"
        string_val: "../data/target/train_images/1842.png"
        string_val: "../data/target/train_images/1843.png"
        string_val: "../data/target/train_images/1844.png"
        string_val: "../data/target/train_images/1845.png"
        string_val: "../data/target/train_images/1846.png"
        string_val: "../data/target/train_images/1847.png"
        string_val: "../data/target/train_images/1848.png"
        string_val: "../data/target/train_images/1849.png"
        string_val: "../data/target/train_images/1850.png"
        string_val: "../data/target/train_images/1851.png"
        string_val: "../data/target/train_images/1852.png"
        string_val: "../data/target/train_images/1853.png"
        string_val: "../data/target/train_images/1854.png"
        string_val: "../data/target/train_images/1855.png"
        string_val: "../data/target/train_images/1856.png"
        string_val: "../data/target/train_images/1857.png"
        string_val: "../data/target/train_images/1858.png"
        string_val: "../data/target/train_images/1859.png"
        string_val: "../data/target/train_images/1860.png"
        string_val: "../data/target/train_images/1861.png"
        string_val: "../data/target/train_images/1862.png"
        string_val: "../data/target/train_images/1863.png"
        string_val: "../data/target/train_images/1864.png"
        string_val: "../data/target/train_images/1865.png"
        string_val: "../data/target/train_images/1866.png"
        string_val: "../data/target/train_images/1867.png"
        string_val: "../data/target/train_images/1868.png"
        string_val: "../data/target/train_images/1869.png"
        string_val: "../data/target/train_images/1870.png"
        string_val: "../data/target/train_images/1871.png"
        string_val: "../data/target/train_images/1872.png"
        string_val: "../data/target/train_images/1873.png"
        string_val: "../data/target/train_images/1874.png"
        string_val: "../data/target/train_images/1875.png"
        string_val: "../data/target/train_images/1876.png"
        string_val: "../data/target/train_images/1877.png"
        string_val: "../data/target/train_images/1878.png"
        string_val: "../data/target/train_images/1879.png"
        string_val: "../data/target/train_images/1880.png"
        string_val: "../data/target/train_images/1881.png"
        string_val: "../data/target/train_images/1882.png"
        string_val: "../data/target/train_images/1883.png"
        string_val: "../data/target/train_images/1884.png"
        string_val: "../data/target/train_images/1885.png"
        string_val: "../data/target/train_images/1886.png"
        string_val: "../data/target/train_images/1887.png"
        string_val: "../data/target/train_images/1888.png"
        string_val: "../data/target/train_images/1889.png"
        string_val: "../data/target/train_images/1890.png"
        string_val: "../data/target/train_images/1891.png"
        string_val: "../data/target/train_images/1892.png"
        string_val: "../data/target/train_images/1893.png"
        string_val: "../data/target/train_images/1894.png"
        string_val: "../data/target/train_images/1895.png"
        string_val: "../data/target/train_images/1896.png"
        string_val: "../data/target/train_images/1897.png"
        string_val: "../data/target/train_images/1898.png"
        string_val: "../data/target/train_images/1899.png"
        string_val: "../data/target/train_images/1900.png"
        string_val: "../data/target/train_images/1901.png"
        string_val: "../data/target/train_images/1902.png"
        string_val: "../data/target/train_images/1903.png"
        string_val: "../data/target/train_images/1904.png"
        string_val: "../data/target/train_images/1905.png"
        string_val: "../data/target/train_images/1906.png"
        string_val: "../data/target/train_images/1907.png"
        string_val: "../data/target/train_images/1908.png"
        string_val: "../data/target/train_images/1909.png"
        string_val: "../data/target/train_images/1910.png"
        string_val: "../data/target/train_images/1911.png"
        string_val: "../data/target/train_images/1912.png"
        string_val: "../data/target/train_images/1913.png"
        string_val: "../data/target/train_images/1914.png"
        string_val: "../data/target/train_images/1915.png"
        string_val: "../data/target/train_images/1916.png"
        string_val: "../data/target/train_images/1917.png"
        string_val: "../data/target/train_images/1918.png"
        string_val: "../data/target/train_images/1919.png"
        string_val: "../data/target/train_images/1920.png"
        string_val: "../data/target/train_images/1921.png"
        string_val: "../data/target/train_images/1922.png"
        string_val: "../data/target/train_images/1923.png"
        string_val: "../data/target/train_images/1924.png"
        string_val: "../data/target/train_images/1925.png"
        string_val: "../data/target/train_images/1926.png"
        string_val: "../data/target/train_images/1927.png"
        string_val: "../data/target/train_images/1928.png"
        string_val: "../data/target/train_images/1929.png"
        string_val: "../data/target/train_images/1930.png"
        string_val: "../data/target/train_images/1931.png"
        string_val: "../data/target/train_images/1932.png"
        string_val: "../data/target/train_images/1933.png"
        string_val: "../data/target/train_images/1934.png"
        string_val: "../data/target/train_images/1935.png"
        string_val: "../data/target/train_images/1936.png"
        string_val: "../data/target/train_images/1937.png"
        string_val: "../data/target/train_images/1938.png"
        string_val: "../data/target/train_images/1939.png"
        string_val: "../data/target/train_images/1940.png"
        string_val: "../data/target/train_images/1941.png"
        string_val: "../data/target/train_images/1942.png"
        string_val: "../data/target/train_images/1943.png"
        string_val: "../data/target/train_images/1944.png"
        string_val: "../data/target/train_images/1945.png"
        string_val: "../data/target/train_images/1946.png"
        string_val: "../data/target/train_images/1947.png"
        string_val: "../data/target/train_images/1948.png"
        string_val: "../data/target/train_images/1949.png"
        string_val: "../data/target/train_images/1950.png"
        string_val: "../data/target/train_images/1951.png"
        string_val: "../data/target/train_images/1952.png"
        string_val: "../data/target/train_images/1953.png"
        string_val: "../data/target/train_images/1954.png"
        string_val: "../data/target/train_images/1955.png"
        string_val: "../data/target/train_images/1956.png"
        string_val: "../data/target/train_images/1957.png"
        string_val: "../data/target/train_images/1958.png"
        string_val: "../data/target/train_images/1959.png"
        string_val: "../data/target/train_images/1960.png"
        string_val: "../data/target/train_images/1961.png"
        string_val: "../data/target/train_images/1962.png"
        string_val: "../data/target/train_images/1963.png"
        string_val: "../data/target/train_images/1964.png"
        string_val: "../data/target/train_images/1965.png"
        string_val: "../data/target/train_images/1966.png"
        string_val: "../data/target/train_images/1967.png"
        string_val: "../data/target/train_images/1968.png"
        string_val: "../data/target/train_images/1969.png"
        string_val: "../data/target/train_images/1970.png"
        string_val: "../data/target/train_images/1971.png"
        string_val: "../data/target/train_images/1972.png"
        string_val: "../data/target/train_images/1973.png"
        string_val: "../data/target/train_images/1974.png"
        string_val: "../data/target/train_images/1975.png"
        string_val: "../data/target/train_images/1976.png"
        string_val: "../data/target/train_images/1977.png"
        string_val: "../data/target/train_images/1978.png"
        string_val: "../data/target/train_images/1979.png"
        string_val: "../data/target/train_images/1980.png"
        string_val: "../data/target/train_images/1981.png"
        string_val: "../data/target/train_images/1982.png"
        string_val: "../data/target/train_images/1983.png"
        string_val: "../data/target/train_images/1984.png"
        string_val: "../data/target/train_images/1985.png"
        string_val: "../data/target/train_images/1986.png"
        string_val: "../data/target/train_images/1987.png"
        string_val: "../data/target/train_images/1988.png"
        string_val: "../data/target/train_images/1989.png"
        string_val: "../data/target/train_images/1990.png"
        string_val: "../data/target/train_images/1991.png"
        string_val: "../data/target/train_images/1992.png"
        string_val: "../data/target/train_images/1993.png"
        string_val: "../data/target/train_images/1994.png"
        string_val: "../data/target/train_images/1995.png"
        string_val: "../data/target/train_images/1996.png"
        string_val: "../data/target/train_images/1997.png"
        string_val: "../data/target/train_images/1998.png"
        string_val: "../data/target/train_images/1999.png"
        string_val: "../data/target/train_images/2000.png"
        string_val: "../data/target/train_images/2001.png"
        string_val: "../data/target/train_images/2002.png"
        string_val: "../data/target/train_images/2003.png"
        string_val: "../data/target/train_images/2004.png"
        string_val: "../data/target/train_images/2005.png"
        string_val: "../data/target/train_images/2006.png"
        string_val: "../data/target/train_images/2007.png"
        string_val: "../data/target/train_images/2008.png"
        string_val: "../data/target/train_images/2009.png"
        string_val: "../data/target/train_images/2010.png"
        string_val: "../data/target/train_images/2011.png"
        string_val: "../data/target/train_images/2012.png"
        string_val: "../data/target/train_images/2013.png"
        string_val: "../data/target/train_images/2014.png"
        string_val: "../data/target/train_images/2015.png"
        string_val: "../data/target/train_images/2016.png"
        string_val: "../data/target/train_images/2017.png"
        string_val: "../data/target/train_images/2018.png"
        string_val: "../data/target/train_images/2019.png"
        string_val: "../data/target/train_images/2020.png"
        string_val: "../data/target/train_images/2021.png"
        string_val: "../data/target/train_images/2022.png"
        string_val: "../data/target/train_images/2023.png"
        string_val: "../data/target/train_images/2024.png"
        string_val: "../data/target/train_images/2025.png"
        string_val: "../data/target/train_images/2026.png"
        string_val: "../data/target/train_images/2027.png"
        string_val: "../data/target/train_images/2028.png"
        string_val: "../data/target/train_images/2029.png"
        string_val: "../data/target/train_images/2030.png"
        string_val: "../data/target/train_images/2031.png"
        string_val: "../data/target/train_images/2032.png"
        string_val: "../data/target/train_images/2033.png"
        string_val: "../data/target/train_images/2034.png"
        string_val: "../data/target/train_images/2035.png"
        string_val: "../data/target/train_images/2036.png"
        string_val: "../data/target/train_images/2037.png"
        string_val: "../data/target/train_images/2038.png"
        string_val: "../data/target/train_images/2039.png"
        string_val: "../data/target/train_images/2040.png"
        string_val: "../data/target/train_images/2041.png"
        string_val: "../data/target/train_images/2042.png"
        string_val: "../data/target/train_images/2043.png"
        string_val: "../data/target/train_images/2044.png"
        string_val: "../data/target/train_images/2045.png"
        string_val: "../data/target/train_images/2046.png"
        string_val: "../data/target/train_images/2047.png"
        string_val: "../data/target/train_images/2048.png"
        string_val: "../data/target/train_images/2049.png"
        string_val: "../data/target/train_images/2050.png"
        string_val: "../data/target/train_images/2051.png"
        string_val: "../data/target/train_images/2052.png"
        string_val: "../data/target/train_images/2053.png"
        string_val: "../data/target/train_images/2054.png"
        string_val: "../data/target/train_images/2055.png"
        string_val: "../data/target/train_images/2056.png"
        string_val: "../data/target/train_images/2057.png"
        string_val: "../data/target/train_images/2058.png"
        string_val: "../data/target/train_images/2059.png"
        string_val: "../data/target/train_images/2060.png"
        string_val: "../data/target/train_images/2061.png"
        string_val: "../data/target/train_images/2062.png"
        string_val: "../data/target/train_images/2063.png"
        string_val: "../data/target/train_images/2064.png"
        string_val: "../data/target/train_images/2065.png"
        string_val: "../data/target/train_images/2066.png"
        string_val: "../data/target/train_images/2067.png"
        string_val: "../data/target/train_images/2068.png"
        string_val: "../data/target/train_images/2069.png"
        string_val: "../data/target/train_images/2070.png"
        string_val: "../data/target/train_images/2071.png"
        string_val: "../data/target/train_images/2072.png"
        string_val: "../data/target/train_images/2073.png"
        string_val: "../data/target/train_images/2074.png"
        string_val: "../data/target/train_images/2075.png"
        string_val: "../data/target/train_images/2076.png"
        string_val: "../data/target/train_images/2077.png"
        string_val: "../data/target/train_images/2078.png"
        string_val: "../data/target/train_images/2079.png"
        string_val: "../data/target/train_images/2080.png"
        string_val: "../data/target/train_images/2081.png"
        string_val: "../data/target/train_images/2082.png"
        string_val: "../data/target/train_images/2083.png"
        string_val: "../data/target/train_images/2084.png"
        string_val: "../data/target/train_images/2085.png"
        string_val: "../data/target/train_images/2086.png"
        string_val: "../data/target/train_images/2087.png"
        string_val: "../data/target/train_images/2088.png"
        string_val: "../data/target/train_images/2089.png"
        string_val: "../data/target/train_images/2090.png"
        string_val: "../data/target/train_images/2091.png"
        string_val: "../data/target/train_images/2092.png"
        string_val: "../data/target/train_images/2093.png"
        string_val: "../data/target/train_images/2094.png"
        string_val: "../data/target/train_images/2095.png"
        string_val: "../data/target/train_images/2096.png"
        string_val: "../data/target/train_images/2097.png"
        string_val: "../data/target/train_images/2098.png"
        string_val: "../data/target/train_images/2099.png"
        string_val: "../data/target/train_images/2100.png"
        string_val: "../data/target/train_images/2101.png"
        string_val: "../data/target/train_images/2102.png"
        string_val: "../data/target/train_images/2103.png"
        string_val: "../data/target/train_images/2104.png"
        string_val: "../data/target/train_images/2105.png"
        string_val: "../data/target/train_images/2106.png"
        string_val: "../data/target/train_images/2107.png"
        string_val: "../data/target/train_images/2108.png"
        string_val: "../data/target/train_images/2109.png"
        string_val: "../data/target/train_images/2110.png"
        string_val: "../data/target/train_images/2111.png"
        string_val: "../data/target/train_images/2112.png"
        string_val: "../data/target/train_images/2113.png"
        string_val: "../data/target/train_images/2114.png"
        string_val: "../data/target/train_images/2115.png"
        string_val: "../data/target/train_images/2116.png"
        string_val: "../data/target/train_images/2117.png"
        string_val: "../data/target/train_images/2118.png"
        string_val: "../data/target/train_images/2119.png"
        string_val: "../data/target/train_images/2120.png"
        string_val: "../data/target/train_images/2121.png"
        string_val: "../data/target/train_images/2122.png"
        string_val: "../data/target/train_images/2123.png"
        string_val: "../data/target/train_images/2124.png"
        string_val: "../data/target/train_images/2125.png"
        string_val: "../data/target/train_images/2126.png"
        string_val: "../data/target/train_images/2127.png"
        string_val: "../data/target/train_images/2128.png"
        string_val: "../data/target/train_images/2129.png"
        string_val: "../data/target/train_images/2130.png"
        string_val: "../data/target/train_images/2131.png"
        string_val: "../data/target/train_images/2132.png"
        string_val: "../data/target/train_images/2133.png"
        string_val: "../data/target/train_images/2134.png"
        string_val: "../data/target/train_images/2135.png"
        string_val: "../data/target/train_images/2136.png"
        string_val: "../data/target/train_images/2137.png"
        string_val: "../data/target/train_images/2138.png"
        string_val: "../data/target/train_images/2139.png"
        string_val: "../data/target/train_images/2140.png"
        string_val: "../data/target/train_images/2141.png"
        string_val: "../data/target/train_images/2142.png"
        string_val: "../data/target/train_images/2143.png"
        string_val: "../data/target/train_images/2144.png"
        string_val: "../data/target/train_images/2145.png"
        string_val: "../data/target/train_images/2146.png"
        string_val: "../data/target/train_images/2147.png"
        string_val: "../data/target/train_images/2148.png"
        string_val: "../data/target/train_images/2149.png"
        string_val: "../data/target/train_images/2150.png"
        string_val: "../data/target/train_images/2151.png"
        string_val: "../data/target/train_images/2152.png"
        string_val: "../data/target/train_images/2153.png"
        string_val: "../data/target/train_images/2154.png"
        string_val: "../data/target/train_images/2155.png"
        string_val: "../data/target/train_images/2156.png"
        string_val: "../data/target/train_images/2157.png"
        string_val: "../data/target/train_images/2158.png"
        string_val: "../data/target/train_images/2159.png"
        string_val: "../data/target/train_images/2160.png"
        string_val: "../data/target/train_images/2161.png"
        string_val: "../data/target/train_images/2162.png"
        string_val: "../data/target/train_images/2163.png"
        string_val: "../data/target/train_images/2164.png"
        string_val: "../data/target/train_images/2165.png"
        string_val: "../data/target/train_images/2166.png"
        string_val: "../data/target/train_images/2167.png"
        string_val: "../data/target/train_images/2168.png"
        string_val: "../data/target/train_images/2169.png"
        string_val: "../data/target/train_images/2170.png"
        string_val: "../data/target/train_images/2171.png"
        string_val: "../data/target/train_images/2172.png"
        string_val: "../data/target/train_images/2173.png"
        string_val: "../data/target/train_images/2174.png"
        string_val: "../data/target/train_images/2175.png"
        string_val: "../data/target/train_images/2176.png"
        string_val: "../data/target/train_images/2177.png"
        string_val: "../data/target/train_images/2178.png"
        string_val: "../data/target/train_images/2179.png"
        string_val: "../data/target/train_images/2180.png"
        string_val: "../data/target/train_images/2181.png"
        string_val: "../data/target/train_images/2182.png"
        string_val: "../data/target/train_images/2183.png"
        string_val: "../data/target/train_images/2184.png"
        string_val: "../data/target/train_images/2185.png"
        string_val: "../data/target/train_images/2186.png"
        string_val: "../data/target/train_images/2187.png"
        string_val: "../data/target/train_images/2188.png"
        string_val: "../data/target/train_images/2189.png"
        string_val: "../data/target/train_images/2190.png"
        string_val: "../data/target/train_images/2191.png"
        string_val: "../data/target/train_images/2192.png"
        string_val: "../data/target/train_images/2193.png"
        string_val: "../data/target/train_images/2194.png"
        string_val: "../data/target/train_images/2195.png"
        string_val: "../data/target/train_images/2196.png"
        string_val: "../data/target/train_images/2197.png"
        string_val: "../data/target/train_images/2198.png"
        string_val: "../data/target/train_images/2199.png"
        string_val: "../data/target/train_images/2200.png"
        string_val: "../data/target/train_images/2201.png"
        string_val: "../data/target/train_images/2202.png"
        string_val: "../data/target/train_images/2203.png"
        string_val: "../data/target/train_images/2204.png"
        string_val: "../data/target/train_images/2205.png"
        string_val: "../data/target/train_images/2206.png"
        string_val: "../data/target/train_images/2207.png"
        string_val: "../data/target/train_images/2208.png"
        string_val: "../data/target/train_images/2209.png"
        string_val: "../data/target/train_images/2210.png"
        string_val: "../data/target/train_images/2211.png"
        string_val: "../data/target/train_images/2212.png"
        string_val: "../data/target/train_images/2213.png"
        string_val: "../data/target/train_images/2214.png"
        string_val: "../data/target/train_images/2215.png"
        string_val: "../data/target/train_images/2216.png"
        string_val: "../data/target/train_images/2217.png"
        string_val: "../data/target/train_images/2218.png"
        string_val: "../data/target/train_images/2219.png"
        string_val: "../data/target/train_images/2220.png"
        string_val: "../data/target/train_images/2221.png"
        string_val: "../data/target/train_images/2222.png"
        string_val: "../data/target/train_images/2223.png"
        string_val: "../data/target/train_images/2224.png"
        string_val: "../data/target/train_images/2225.png"
        string_val: "../data/target/train_images/2226.png"
        string_val: "../data/target/train_images/2227.png"
        string_val: "../data/target/train_images/2228.png"
        string_val: "../data/target/train_images/2229.png"
        string_val: "../data/target/train_images/2230.png"
        string_val: "../data/target/train_images/2231.png"
        string_val: "../data/target/train_images/2232.png"
        string_val: "../data/target/train_images/2233.png"
        string_val: "../data/target/train_images/2234.png"
        string_val: "../data/target/train_images/2235.png"
        string_val: "../data/target/train_images/2236.png"
        string_val: "../data/target/train_images/2237.png"
        string_val: "../data/target/train_images/2238.png"
        string_val: "../data/target/train_images/2239.png"
        string_val: "../data/target/train_images/2240.png"
        string_val: "../data/target/train_images/2241.png"
        string_val: "../data/target/train_images/2242.png"
        string_val: "../data/target/train_images/2243.png"
        string_val: "../data/target/train_images/2244.png"
        string_val: "../data/target/train_images/2245.png"
        string_val: "../data/target/train_images/2246.png"
        string_val: "../data/target/train_images/2247.png"
        string_val: "../data/target/train_images/2248.png"
        string_val: "../data/target/train_images/2249.png"
        string_val: "../data/target/train_images/2250.png"
        string_val: "../data/target/train_images/2251.png"
        string_val: "../data/target/train_images/2252.png"
        string_val: "../data/target/train_images/2253.png"
        string_val: "../data/target/train_images/2254.png"
        string_val: "../data/target/train_images/2255.png"
        string_val: "../data/target/train_images/2256.png"
        string_val: "../data/target/train_images/2257.png"
        string_val: "../data/target/train_images/2258.png"
        string_val: "../data/target/train_images/2259.png"
        string_val: "../data/target/train_images/2260.png"
        string_val: "../data/target/train_images/2261.png"
        string_val: "../data/target/train_images/2262.png"
        string_val: "../data/target/train_images/2263.png"
        string_val: "../data/target/train_images/2264.png"
        string_val: "../data/target/train_images/2265.png"
        string_val: "../data/target/train_images/2266.png"
        string_val: "../data/target/train_images/2267.png"
        string_val: "../data/target/train_images/2268.png"
        string_val: "../data/target/train_images/2269.png"
        string_val: "../data/target/train_images/2270.png"
        string_val: "../data/target/train_images/2271.png"
        string_val: "../data/target/train_images/2272.png"
        string_val: "../data/target/train_images/2273.png"
        string_val: "../data/target/train_images/2274.png"
        string_val: "../data/target/train_images/2275.png"
        string_val: "../data/target/train_images/2276.png"
        string_val: "../data/target/train_images/2277.png"
        string_val: "../data/target/train_images/2278.png"
        string_val: "../data/target/train_images/2279.png"
        string_val: "../data/target/train_images/2280.png"
        string_val: "../data/target/train_images/2281.png"
        string_val: "../data/target/train_images/2282.png"
        string_val: "../data/target/train_images/2283.png"
        string_val: "../data/target/train_images/2284.png"
        string_val: "../data/target/train_images/2285.png"
        string_val: "../data/target/train_images/2286.png"
        string_val: "../data/target/train_images/2287.png"
        string_val: "../data/target/train_images/2288.png"
        string_val: "../data/target/train_images/2289.png"
        string_val: "../data/target/train_images/2290.png"
        string_val: "../data/target/train_images/2291.png"
        string_val: "../data/target/train_images/2292.png"
        string_val: "../data/target/train_images/2293.png"
        string_val: "../data/target/train_images/2294.png"
        string_val: "../data/target/train_images/2295.png"
        string_val: "../data/target/train_images/2296.png"
        string_val: "../data/target/train_images/2297.png"
        string_val: "../data/target/train_images/2298.png"
        string_val: "../data/target/train_images/2299.png"
        string_val: "../data/target/train_images/2300.png"
        string_val: "../data/target/train_images/2301.png"
        string_val: "../data/target/train_images/2302.png"
        string_val: "../data/target/train_images/2303.png"
        string_val: "../data/target/train_images/2304.png"
        string_val: "../data/target/train_images/2305.png"
        string_val: "../data/target/train_images/2306.png"
        string_val: "../data/target/train_images/2307.png"
        string_val: "../data/target/train_images/2308.png"
        string_val: "../data/target/train_images/2309.png"
        string_val: "../data/target/train_images/2310.png"
        string_val: "../data/target/train_images/2311.png"
        string_val: "../data/target/train_images/2312.png"
        string_val: "../data/target/train_images/2313.png"
        string_val: "../data/target/train_images/2314.png"
        string_val: "../data/target/train_images/2315.png"
        string_val: "../data/target/train_images/2316.png"
        string_val: "../data/target/train_images/2317.png"
        string_val: "../data/target/train_images/2318.png"
        string_val: "../data/target/train_images/2319.png"
        string_val: "../data/target/train_images/2320.png"
        string_val: "../data/target/train_images/2321.png"
        string_val: "../data/target/train_images/2322.png"
        string_val: "../data/target/train_images/2323.png"
        string_val: "../data/target/train_images/2324.png"
        string_val: "../data/target/train_images/2325.png"
        string_val: "../data/target/train_images/2326.png"
        string_val: "../data/target/train_images/2327.png"
        string_val: "../data/target/train_images/2328.png"
        string_val: "../data/target/train_images/2329.png"
        string_val: "../data/target/train_images/2330.png"
        string_val: "../data/target/train_images/2331.png"
        string_val: "../data/target/train_images/2332.png"
        string_val: "../data/target/train_images/2333.png"
        string_val: "../data/target/train_images/2334.png"
        string_val: "../data/target/train_images/2335.png"
        string_val: "../data/target/train_images/2336.png"
        string_val: "../data/target/train_images/2337.png"
        string_val: "../data/target/train_images/2338.png"
        string_val: "../data/target/train_images/2339.png"
        string_val: "../data/target/train_images/2340.png"
        string_val: "../data/target/train_images/2341.png"
        string_val: "../data/target/train_images/2342.png"
        string_val: "../data/target/train_images/2343.png"
        string_val: "../data/target/train_images/2344.png"
        string_val: "../data/target/train_images/2345.png"
        string_val: "../data/target/train_images/2346.png"
        string_val: "../data/target/train_images/2347.png"
        string_val: "../data/target/train_images/2348.png"
        string_val: "../data/target/train_images/2349.png"
        string_val: "../data/target/train_images/2350.png"
        string_val: "../data/target/train_images/2351.png"
        string_val: "../data/target/train_images/2352.png"
        string_val: "../data/target/train_images/2353.png"
        string_val: "../data/target/train_images/2354.png"
        string_val: "../data/target/train_images/2355.png"
        string_val: "../data/target/train_images/2356.png"
        string_val: "../data/target/train_images/2357.png"
        string_val: "../data/target/train_images/2358.png"
        string_val: "../data/target/train_images/2359.png"
        string_val: "../data/target/train_images/2360.png"
        string_val: "../data/target/train_images/2361.png"
        string_val: "../data/target/train_images/2362.png"
        string_val: "../data/target/train_images/2363.png"
        string_val: "../data/target/train_images/2364.png"
        string_val: "../data/target/train_images/2365.png"
        string_val: "../data/target/train_images/2366.png"
        string_val: "../data/target/train_images/2367.png"
        string_val: "../data/target/train_images/2368.png"
        string_val: "../data/target/train_images/2369.png"
        string_val: "../data/target/train_images/2370.png"
        string_val: "../data/target/train_images/2371.png"
        string_val: "../data/target/train_images/2372.png"
        string_val: "../data/target/train_images/2373.png"
        string_val: "../data/target/train_images/2374.png"
        string_val: "../data/target/train_images/2375.png"
        string_val: "../data/target/train_images/2376.png"
        string_val: "../data/target/train_images/2377.png"
        string_val: "../data/target/train_images/2378.png"
        string_val: "../data/target/train_images/2379.png"
        string_val: "../data/target/train_images/2380.png"
        string_val: "../data/target/train_images/2381.png"
        string_val: "../data/target/train_images/2382.png"
        string_val: "../data/target/train_images/2383.png"
        string_val: "../data/target/train_images/2384.png"
        string_val: "../data/target/train_images/2385.png"
        string_val: "../data/target/train_images/2386.png"
        string_val: "../data/target/train_images/2387.png"
        string_val: "../data/target/train_images/2388.png"
        string_val: "../data/target/train_images/2389.png"
        string_val: "../data/target/train_images/2390.png"
        string_val: "../data/target/train_images/2391.png"
        string_val: "../data/target/train_images/2392.png"
        string_val: "../data/target/train_images/2393.png"
        string_val: "../data/target/train_images/2394.png"
        string_val: "../data/target/train_images/2395.png"
        string_val: "../data/target/train_images/2396.png"
        string_val: "../data/target/train_images/2397.png"
        string_val: "../data/target/train_images/2398.png"
        string_val: "../data/target/train_images/2399.png"
        string_val: "../data/target/train_images/2400.png"
        string_val: "../data/target/train_images/2401.png"
        string_val: "../data/target/train_images/2402.png"
        string_val: "../data/target/train_images/2403.png"
        string_val: "../data/target/train_images/2404.png"
        string_val: "../data/target/train_images/2405.png"
        string_val: "../data/target/train_images/2406.png"
        string_val: "../data/target/train_images/2407.png"
        string_val: "../data/target/train_images/2408.png"
        string_val: "../data/target/train_images/2409.png"
        string_val: "../data/target/train_images/2410.png"
        string_val: "../data/target/train_images/2411.png"
        string_val: "../data/target/train_images/2412.png"
        string_val: "../data/target/train_images/2413.png"
        string_val: "../data/target/train_images/2414.png"
        string_val: "../data/target/train_images/2415.png"
        string_val: "../data/target/train_images/2416.png"
        string_val: "../data/target/train_images/2417.png"
        string_val: "../data/target/train_images/2418.png"
        string_val: "../data/target/train_images/2419.png"
        string_val: "../data/target/train_images/2420.png"
        string_val: "../data/target/train_images/2421.png"
        string_val: "../data/target/train_images/2422.png"
        string_val: "../data/target/train_images/2423.png"
        string_val: "../data/target/train_images/2424.png"
        string_val: "../data/target/train_images/2425.png"
        string_val: "../data/target/train_images/2426.png"
        string_val: "../data/target/train_images/2427.png"
        string_val: "../data/target/train_images/2428.png"
        string_val: "../data/target/train_images/2429.png"
        string_val: "../data/target/train_images/2430.png"
        string_val: "../data/target/train_images/2431.png"
        string_val: "../data/target/train_images/2432.png"
        string_val: "../data/target/train_images/2433.png"
        string_val: "../data/target/train_images/2434.png"
        string_val: "../data/target/train_images/2435.png"
        string_val: "../data/target/train_images/2436.png"
        string_val: "../data/target/train_images/2437.png"
        string_val: "../data/target/train_images/2438.png"
        string_val: "../data/target/train_images/2439.png"
        string_val: "../data/target/train_images/2440.png"
        string_val: "../data/target/train_images/2441.png"
        string_val: "../data/target/train_images/2442.png"
        string_val: "../data/target/train_images/2443.png"
        string_val: "../data/target/train_images/2444.png"
        string_val: "../data/target/train_images/2445.png"
        string_val: "../data/target/train_images/2446.png"
        string_val: "../data/target/train_images/2447.png"
        string_val: "../data/target/train_images/2448.png"
        string_val: "../data/target/train_images/2449.png"
        string_val: "../data/target/train_images/2450.png"
        string_val: "../data/target/train_images/2451.png"
        string_val: "../data/target/train_images/2452.png"
        string_val: "../data/target/train_images/2453.png"
        string_val: "../data/target/train_images/2454.png"
        string_val: "../data/target/train_images/2455.png"
        string_val: "../data/target/train_images/2456.png"
        string_val: "../data/target/train_images/2457.png"
        string_val: "../data/target/train_images/2458.png"
        string_val: "../data/target/train_images/2459.png"
        string_val: "../data/target/train_images/2460.png"
        string_val: "../data/target/train_images/2461.png"
        string_val: "../data/target/train_images/2462.png"
        string_val: "../data/target/train_images/2463.png"
        string_val: "../data/target/train_images/2464.png"
        string_val: "../data/target/train_images/2465.png"
        string_val: "../data/target/train_images/2466.png"
        string_val: "../data/target/train_images/2467.png"
        string_val: "../data/target/train_images/2468.png"
        string_val: "../data/target/train_images/2469.png"
        string_val: "../data/target/train_images/2470.png"
        string_val: "../data/target/train_images/2471.png"
        string_val: "../data/target/train_images/2472.png"
        string_val: "../data/target/train_images/2473.png"
        string_val: "../data/target/train_images/2474.png"
        string_val: "../data/target/train_images/2475.png"
        string_val: "../data/target/train_images/2476.png"
        string_val: "../data/target/train_images/2477.png"
        string_val: "../data/target/train_images/2478.png"
        string_val: "../data/target/train_images/2479.png"
        string_val: "../data/target/train_images/2480.png"
        string_val: "../data/target/train_images/2481.png"
        string_val: "../data/target/train_images/2482.png"
        string_val: "../data/target/train_images/2483.png"
        string_val: "../data/target/train_images/2484.png"
        string_val: "../data/target/train_images/2485.png"
        string_val: "../data/target/train_images/2486.png"
        string_val: "../data/target/train_images/2487.png"
        string_val: "../data/target/train_images/2488.png"
        string_val: "../data/target/train_images/2489.png"
        string_val: "../data/target/train_images/2490.png"
        string_val: "../data/target/train_images/2491.png"
        string_val: "../data/target/train_images/2492.png"
        string_val: "../data/target/train_images/2493.png"
        string_val: "../data/target/train_images/2494.png"
        string_val: "../data/target/train_images/2495.png"
        string_val: "../data/target/train_images/2496.png"
        string_val: "../data/target/train_images/2497.png"
        string_val: "../data/target/train_images/2498.png"
        string_val: "../data/target/train_images/2499.png"
        string_val: "../data/target/train_images/2500.png"
        string_val: "../data/target/train_images/2501.png"
        string_val: "../data/target/train_images/2502.png"
        string_val: "../data/target/train_images/2503.png"
        string_val: "../data/target/train_images/2504.png"
        string_val: "../data/target/train_images/2505.png"
        string_val: "../data/target/train_images/2506.png"
        string_val: "../data/target/train_images/2507.png"
        string_val: "../data/target/train_images/2508.png"
        string_val: "../data/target/train_images/2509.png"
        string_val: "../data/target/train_images/2510.png"
        string_val: "../data/target/train_images/2511.png"
        string_val: "../data/target/train_images/2512.png"
        string_val: "../data/target/train_images/2513.png"
        string_val: "../data/target/train_images/2514.png"
        string_val: "../data/target/train_images/2515.png"
        string_val: "../data/target/train_images/2516.png"
        string_val: "../data/target/train_images/2517.png"
        string_val: "../data/target/train_images/2518.png"
        string_val: "../data/target/train_images/2519.png"
        string_val: "../data/target/train_images/2520.png"
        string_val: "../data/target/train_images/2521.png"
        string_val: "../data/target/train_images/2522.png"
        string_val: "../data/target/train_images/2523.png"
        string_val: "../data/target/train_images/2524.png"
        string_val: "../data/target/train_images/2525.png"
        string_val: "../data/target/train_images/2526.png"
        string_val: "../data/target/train_images/2527.png"
        string_val: "../data/target/train_images/2528.png"
        string_val: "../data/target/train_images/2529.png"
        string_val: "../data/target/train_images/2530.png"
        string_val: "../data/target/train_images/2531.png"
        string_val: "../data/target/train_images/2532.png"
        string_val: "../data/target/train_images/2533.png"
…
        string_val: "generator/encoder_5/batch_normalization/gamma/Adam"
        string_val: "generator/encoder_5/batch_normalization/gamma/Adam_1"
        string_val: "generator/encoder_5/batch_normalization/beta/Adam"
        string_val: "generator/encoder_5/batch_normalization/beta/Adam_1"
        string_val: "generator/encoder_6/conv2d/kernel/Adam"
        string_val: "generator/encoder_6/conv2d/kernel/Adam_1"
        string_val: "generator/encoder_6/conv2d/bias/Adam"
        string_val: "generator/encoder_6/conv2d/bias/Adam_1"
        string_val: "generator/encoder_6/batch_normalization/gamma/Adam"
        string_val: "generator/encoder_6/batch_normalization/gamma/Adam_1"
        string_val: "generator/encoder_6/batch_normalization/beta/Adam"
        string_val: "generator/encoder_6/batch_normalization/beta/Adam_1"
        string_val: "generator/encoder_7/conv2d/kernel/Adam"
        string_val: "generator/encoder_7/conv2d/kernel/Adam_1"
        string_val: "generator/encoder_7/conv2d/bias/Adam"
        string_val: "generator/encoder_7/conv2d/bias/Adam_1"
        string_val: "generator/encoder_7/batch_normalization/gamma/Adam"
        string_val: "generator/encoder_7/batch_normalization/gamma/Adam_1"
        string_val: "generator/encoder_7/batch_normalization/beta/Adam"
        string_val: "generator/encoder_7/batch_normalization/beta/Adam_1"
        string_val: "generator/encoder_8/conv2d/kernel/Adam"
        string_val: "generator/encoder_8/conv2d/kernel/Adam_1"
        string_val: "generator/encoder_8/conv2d/bias/Adam"
        string_val: "generator/encoder_8/conv2d/bias/Adam_1"
        string_val: "generator/encoder_8/batch_normalization/gamma/Adam"
        string_val: "generator/encoder_8/batch_normalization/gamma/Adam_1"
        string_val: "generator/encoder_8/batch_normalization/beta/Adam"
        string_val: "generator/encoder_8/batch_normalization/beta/Adam_1"
        string_val: "generator/decoder_8/conv2d_transpose/kernel/Adam"
        string_val: "generator/decoder_8/conv2d_transpose/kernel/Adam_1"
        string_val: "generator/decoder_8/conv2d_transpose/bias/Adam"
        string_val: "generator/decoder_8/conv2d_transpose/bias/Adam_1"
        string_val: "generator/decoder_8/batch_normalization/gamma/Adam"
        string_val: "generator/decoder_8/batch_normalization/gamma/Adam_1"
        string_val: "generator/decoder_8/batch_normalization/beta/Adam"
        string_val: "generator/decoder_8/batch_normalization/beta/Adam_1"
        string_val: "generator/decoder_7/conv2d_transpose/kernel/Adam"
        string_val: "generator/decoder_7/conv2d_transpose/kernel/Adam_1"
        string_val: "generator/decoder_7/conv2d_transpose/bias/Adam"
        string_val: "generator/decoder_7/conv2d_transpose/bias/Adam_1"
        string_val: "generator/decoder_7/batch_normalization/gamma/Adam"
        string_val: "generator/decoder_7/batch_normalization/gamma/Adam_1"
        string_val: "generator/decoder_7/batch_normalization/beta/Adam"
        string_val: "generator/decoder_7/batch_normalization/beta/Adam_1"
        string_val: "generator/decoder_6/conv2d_transpose/kernel/Adam"
        string_val: "generator/decoder_6/conv2d_transpose/kernel/Adam_1"
        string_val: "generator/decoder_6/conv2d_transpose/bias/Adam"
        string_val: "generator/decoder_6/conv2d_transpose/bias/Adam_1"
        string_val: "generator/decoder_6/batch_normalization/gamma/Adam"
        string_val: "generator/decoder_6/batch_normalization/gamma/Adam_1"
        string_val: "generator/decoder_6/batch_normalization/beta/Adam"
        string_val: "generator/decoder_6/batch_normalization/beta/Adam_1"
        string_val: "generator/decoder_5/conv2d_transpose/kernel/Adam"
        string_val: "generator/decoder_5/conv2d_transpose/kernel/Adam_1"
        string_val: "generator/decoder_5/conv2d_transpose/bias/Adam"
        string_val: "generator/decoder_5/conv2d_transpose/bias/Adam_1"
        string_val: "generator/decoder_5/batch_normalization/gamma/Adam"
        string_val: "generator/decoder_5/batch_normalization/gamma/Adam_1"
        string_val: "generator/decoder_5/batch_normalization/beta/Adam"
        string_val: "generator/decoder_5/batch_normalization/beta/Adam_1"
        string_val: "generator/decoder_4/conv2d_transpose/kernel/Adam"
        string_val: "generator/decoder_4/conv2d_transpose/kernel/Adam_1"
        string_val: "generator/decoder_4/conv2d_transpose/bias/Adam"
        string_val: "generator/decoder_4/conv2d_transpose/bias/Adam_1"
        string_val: "generator/decoder_4/batch_normalization/gamma/Adam"
        string_val: "generator/decoder_4/batch_normalization/gamma/Adam_1"
        string_val: "generator/decoder_4/batch_normalization/beta/Adam"
        string_val: "generator/decoder_4/batch_normalization/beta/Adam_1"
        string_val: "generator/decoder_3/conv2d_transpose/kernel/Adam"
        string_val: "generator/decoder_3/conv2d_transpose/kernel/Adam_1"
        string_val: "generator/decoder_3/conv2d_transpose/bias/Adam"
        string_val: "generator/decoder_3/conv2d_transpose/bias/Adam_1"
        string_val: "generator/decoder_3/batch_normalization/gamma/Adam"
        string_val: "generator/decoder_3/batch_normalization/gamma/Adam_1"
        string_val: "generator/decoder_3/batch_normalization/beta/Adam"
        string_val: "generator/decoder_3/batch_normalization/beta/Adam_1"
        string_val: "generator/decoder_2/conv2d_transpose/kernel/Adam"
        string_val: "generator/decoder_2/conv2d_transpose/kernel/Adam_1"
        string_val: "generator/decoder_2/conv2d_transpose/bias/Adam"
        string_val: "generator/decoder_2/conv2d_transpose/bias/Adam_1"
        string_val: "generator/decoder_2/batch_normalization/gamma/Adam"
        string_val: "generator/decoder_2/batch_normalization/gamma/Adam_1"
        string_val: "generator/decoder_2/batch_normalization/beta/Adam"
        string_val: "generator/decoder_2/batch_normalization/beta/Adam_1"
        string_val: "generator/decoder_1/conv2d_transpose/kernel/Adam"
        string_val: "generator/decoder_1/conv2d_transpose/kernel/Adam_1"
        string_val: "generator/decoder_1/conv2d_transpose/bias/Adam"
        string_val: "generator/decoder_1/conv2d_transpose/bias/Adam_1"
        string_val: "discriminator_loss/Mean/ExponentialMovingAverage"
        string_val: "generator_loss/Mean/ExponentialMovingAverage"
        string_val: "generator_loss/Mean_1/ExponentialMovingAverage"
        string_val: "global_step"
      }
    }
  }
}
node {
  name: "report_uninitialized_variables/boolean_mask/Shape"
  op: "Const"
  device: "/device:CPU:0"
  attr {
    key: "_output_shapes"
    value {
      list {
        shape {
          dim {
            size: 1
          }
        }
      }
    }
  }
  attr {
    key: "dtype"
    value {
      type: DT_INT32
    }
  }
  attr {
    key: "value"
    value {
      tensor {
        dtype: DT_INT32
        tensor_shape {
          dim {
            size: 1
          }
        }
        int_val: 270
      }
    }
  }
}
node {
  name: "report_uninitialized_variables/boolean_mask/strided_slice/stack"
  op: "Const"
  device: "/device:CPU:0"
  attr {
    key: "_output_shapes"
    value {
      list {
        shape {
          dim {
            size: 1
          }
        }
      }
    }
  }
  attr {
    key: "dtype"
    value {
      type: DT_INT32
    }
  }
  attr {
    key: "value"
    value {
      tensor {
        dtype: DT_INT32
        tensor_shape {
          dim {
            size: 1
          }
        }
        int_val: 0
      }
    }
  }
}
node {
  name: "report_uninitialized_variables/boolean_mask/strided_slice/stack_1"
  op: "Const"
  device: "/device:CPU:0"
  attr {
    key: "_output_shapes"
    value {
      list {
        shape {
          dim {
            size: 1
          }
        }
      }
    }
  }
  attr {
    key: "dtype"
    value {
      type: DT_INT32
    }
  }
  attr {
    key: "value"
    value {
      tensor {
        dtype: DT_INT32
        tensor_shape {
          dim {
            size: 1
          }
        }
        int_val: 1
      }
    }
  }
}
node {
  name: "report_uninitialized_variables/boolean_mask/strided_slice/stack_2"
  op: "Const"
  device: "/device:CPU:0"
  attr {
    key: "_output_shapes"
    value {
      list {
        shape {
          dim {
            size: 1
          }
        }
      }
    }
  }
  attr {
    key: "dtype"
    value {
      type: DT_INT32
    }
  }
  attr {
    key: "value"
    value {
      tensor {
        dtype: DT_INT32
        tensor_shape {
          dim {
            size: 1
          }
        }
        int_val: 1
      }
    }
  }
}
node {
  name: "report_uninitialized_variables/boolean_mask/strided_slice"
  op: "StridedSlice"
  input: "report_uninitialized_variables/boolean_mask/Shape"
  input: "report_uninitialized_variables/boolean_mask/strided_slice/stack"
  input: "report_uninitialized_variables/boolean_mask/strided_slice/stack_1"
  input: "report_uninitialized_variables/boolean_mask/strided_slice/stack_2"
  device: "/device:CPU:0"
  attr {
    key: "Index"
    value {
      type: DT_INT32
    }
  }
  attr {
    key: "T"
    value {
      type: DT_INT32
    }
  }
  attr {
    key: "_output_shapes"
    value {
      list {
        shape {
          dim {
            size: 1
          }
        }
      }
    }
  }
  attr {
    key: "begin_mask"
    value {
      i: 0
    }
  }
  attr {
    key: "ellipsis_mask"
    value {
      i: 0
    }
  }
  attr {
    key: "end_mask"
    value {
      i: 0
    }
  }
  attr {
    key: "new_axis_mask"
    value {
      i: 0
    }
  }
  attr {
    key: "shrink_axis_mask"
    value {
      i: 0
    }
  }
}
node {
  name: "report_uninitialized_variables/boolean_mask/Prod/reduction_indices"
  op: "Const"
  device: "/device:CPU:0"
  attr {
    key: "_output_shapes"
    value {
      list {
        shape {
          dim {
            size: 1
          }
        }
      }
    }
  }
  attr {
    key: "dtype"
    value {
      type: DT_INT32
    }
  }
  attr {
    key: "value"
    value {
      tensor {
        dtype: DT_INT32
        tensor_shape {
          dim {
            size: 1
          }
        }
        int_val: 0
      }
    }
  }
}
node {
  name: "report_uninitialized_variables/boolean_mask/Prod"
  op: "Prod"
  input: "report_uninitialized_variables/boolean_mask/strided_slice"
  input: "report_uninitialized_variables/boolean_mask/Prod/reduction_indices"
  device: "/device:CPU:0"
  attr {
    key: "T"
    value {
      type: DT_INT32
    }
  }
  attr {
    key: "Tidx"
    value {
      type: DT_INT32
    }
  }
  attr {
    key: "_output_shapes"
    value {
      list {
        shape {
        }
      }
    }
  }
  attr {
    key: "keep_dims"
    value {
      b: false
    }
  }
}
node {
  name: "report_uninitialized_variables/boolean_mask/Shape_1"
  op: "Const"
  device: "/device:CPU:0"
  attr {
    key: "_output_shapes"
    value {
      list {
        shape {
          dim {
            size: 1
          }
        }
      }
    }
  }
  attr {
    key: "dtype"
    value {
      type: DT_INT32
    }
  }
  attr {
    key: "value"
    value {
      tensor {
        dtype: DT_INT32
        tensor_shape {
          dim {
            size: 1
          }
        }
        int_val: 270
      }
    }
  }
}
node {
  name: "report_uninitialized_variables/boolean_mask/strided_slice_1/stack"
  op: "Const"
  device: "/device:CPU:0"
  attr {
    key: "_output_shapes"
    value {
      list {
        shape {
          dim {
            size: 1
          }
        }
      }
    }
  }
  attr {
    key: "dtype"
    value {
      type: DT_INT32
    }
  }
  attr {
    key: "value"
    value {
      tensor {
        dtype: DT_INT32
        tensor_shape {
          dim {
            size: 1
          }
        }
        int_val: 0
      }
    }
  }
}
node {
  name: "report_uninitialized_variables/boolean_mask/strided_slice_1/stack_1"
  op: "Const"
  device: "/device:CPU:0"
  attr {
    key: "_output_shapes"
    value {
      list {
        shape {
          dim {
            size: 1
          }
        }
      }
    }
  }
  attr {
    key: "dtype"
    value {
      type: DT_INT32
    }
  }
  attr {
    key: "value"
    value {
      tensor {
        dtype: DT_INT32
        tensor_shape {
          dim {
            size: 1
          }
        }
        int_val: 0
      }
    }
  }
}
node {
  name: "report_uninitialized_variables/boolean_mask/strided_slice_1/stack_2"
  op: "Const"
  device: "/device:CPU:0"
  attr {
    key: "_output_shapes"
    value {
      list {
        shape {
          dim {
            size: 1
          }
        }
      }
    }
  }
  attr {
    key: "dtype"
    value {
      type: DT_INT32
    }
  }
  attr {
    key: "value"
    value {
      tensor {
        dtype: DT_INT32
        tensor_shape {
          dim {
            size: 1
          }
        }
        int_val: 1
      }
    }
  }
}
node {
  name: "report_uninitialized_variables/boolean_mask/strided_slice_1"
  op: "StridedSlice"
  input: "report_uninitialized_variables/boolean_mask/Shape_1"
  input: "report_uninitialized_variables/boolean_mask/strided_slice_1/stack"
  input: "report_uninitialized_variables/boolean_mask/strided_slice_1/stack_1"
  input: "report_uninitialized_variables/boolean_mask/strided_slice_1/stack_2"
  device: "/device:CPU:0"
  attr {
    key: "Index"
    value {
      type: DT_INT32
    }
  }
  attr {
    key: "T"
    value {
      type: DT_INT32
    }
  }
  attr {
    key: "_output_shapes"
    value {
      list {
        shape {
          dim {
          }
        }
      }
    }
  }
  attr {
    key: "begin_mask"
    value {
      i: 1
    }
  }
  attr {
    key: "ellipsis_mask"
    value {
      i: 0
    }
  }
  attr {
    key: "end_mask"
    value {
      i: 0
    }
  }
  attr {
    key: "new_axis_mask"
    value {
      i: 0
    }
  }
  attr {
    key: "shrink_axis_mask"
    value {
      i: 0
    }
  }
}
node {
  name: "report_uninitialized_variables/boolean_mask/Shape_2"
  op: "Const"
  device: "/device:CPU:0"
  attr {
    key: "_output_shapes"
    value {
      list {
        shape {
          dim {
            size: 1
          }
        }
      }
    }
  }
  attr {
    key: "dtype"
    value {
      type: DT_INT32
    }
  }
  attr {
    key: "value"
    value {
      tensor {
        dtype: DT_INT32
        tensor_shape {
          dim {
            size: 1
          }
        }
        int_val: 270
      }
    }
  }
}
node {
  name: "report_uninitialized_variables/boolean_mask/strided_slice_2/stack"
  op: "Const"
  device: "/device:CPU:0"
  attr {
    key: "_output_shapes"
    value {
      list {
        shape {
          dim {
            size: 1
          }
        }
      }
    }
  }
  attr {
    key: "dtype"
    value {
      type: DT_INT32
    }
  }
  attr {
    key: "value"
    value {
      tensor {
        dtype: DT_INT32
        tensor_shape {
          dim {
            size: 1
          }
        }
        int_val: 1
      }
    }
  }
}
node {
  name: "report_uninitialized_variables/boolean_mask/strided_slice_2/stack_1"
  op: "Const"
  device: "/device:CPU:0"
  attr {
    key: "_output_shapes"
    value {
      list {
        shape {
          dim {
            size: 1
          }
        }
      }
    }
  }
  attr {
    key: "dtype"
    value {
      type: DT_INT32
    }
  }
  attr {
    key: "value"
    value {
      tensor {
        dtype: DT_INT32
        tensor_shape {
          dim {
            size: 1
          }
        }
        int_val: 0
      }
    }
  }
}
node {
  name: "report_uninitialized_variables/boolean_mask/strided_slice_2/stack_2"
  op: "Const"
  device: "/device:CPU:0"
  attr {
    key: "_output_shapes"
    value {
      list {
        shape {
          dim {
            size: 1
          }
        }
      }
    }
  }
  attr {
    key: "dtype"
    value {
      type: DT_INT32
    }
  }
  attr {
    key: "value"
    value {
      tensor {
        dtype: DT_INT32
        tensor_shape {
          dim {
            size: 1
          }
        }
        int_val: 1
      }
    }
  }
}
node {
  name: "report_uninitialized_variables/boolean_mask/strided_slice_2"
  op: "StridedSlice"
  input: "report_uninitialized_variables/boolean_mask/Shape_2"
  input: "report_uninitialized_variables/boolean_mask/strided_slice_2/stack"
  input: "report_uninitialized_variables/boolean_mask/strided_slice_2/stack_1"
  input: "report_uninitialized_variables/boolean_mask/strided_slice_2/stack_2"
  device: "/device:CPU:0"
  attr {
    key: "Index"
    value {
      type: DT_INT32
    }
  }
  attr {
    key: "T"
    value {
      type: DT_INT32
    }
  }
  attr {
    key: "_output_shapes"
    value {
      list {
        shape {
          dim {
          }
        }
      }
    }
  }
  attr {
    key: "begin_mask"
    value {
      i: 0
    }
  }
  attr {
    key: "ellipsis_mask"
    value {
      i: 0
    }
  }
  attr {
    key: "end_mask"
    value {
      i: 1
    }
  }
  attr {
    key: "new_axis_mask"
    value {
      i: 0
    }
  }
  attr {
    key: "shrink_axis_mask"
    value {
      i: 0
    }
  }
}
node {
  name: "report_uninitialized_variables/boolean_mask/concat/values_1"
  op: "Pack"
  input: "report_uninitialized_variables/boolean_mask/Prod"
  device: "/device:CPU:0"
  attr {
    key: "N"
    value {
      i: 1
    }
  }
  attr {
    key: "T"
    value {
      type: DT_INT32
    }
  }
  attr {
    key: "_output_shapes"
    value {
      list {
        shape {
          dim {
            size: 1
          }
        }
      }
    }
  }
  attr {
    key: "axis"
    value {
      i: 0
    }
  }
}
node {
  name: "report_uninitialized_variables/boolean_mask/concat/axis"
  op: "Const"
  device: "/device:CPU:0"
  attr {
    key: "_output_shapes"
    value {
      list {
        shape {
        }
      }
    }
  }
  attr {
    key: "dtype"
    value {
      type: DT_INT32
    }
  }
  attr {
    key: "value"
    value {
      tensor {
        dtype: DT_INT32
        tensor_shape {
        }
        int_val: 0
      }
    }
  }
}
node {
  name: "report_uninitialized_variables/boolean_mask/concat"
  op: "ConcatV2"
  input: "report_uninitialized_variables/boolean_mask/strided_slice_1"
  input: "report_uninitialized_variables/boolean_mask/concat/values_1"
  input: "report_uninitialized_variables/boolean_mask/strided_slice_2"
  input: "report_uninitialized_variables/boolean_mask/concat/axis"
  device: "/device:CPU:0"
  attr {
    key: "N"
    value {
      i: 3
    }
  }
  attr {
    key: "T"
    value {
      type: DT_INT32
    }
  }
  attr {
    key: "Tidx"
    value {
      type: DT_INT32
    }
  }
  attr {
    key: "_output_shapes"
    value {
      list {
        shape {
          dim {
            size: 1
          }
        }
      }
    }
  }
}
node {
  name: "report_uninitialized_variables/boolean_mask/Reshape"
  op: "Reshape"
  input: "report_uninitialized_variables/Const"
  input: "report_uninitialized_variables/boolean_mask/concat"
  device: "/device:CPU:0"
  attr {
    key: "T"
    value {
      type: DT_STRING
    }
  }
  attr {
    key: "Tshape"
    value {
      type: DT_INT32
    }
  }
  attr {
    key: "_output_shapes"
    value {
      list {
        shape {
          dim {
            size: 270
          }
        }
      }
    }
  }
}
node {
  name: "report_uninitialized_variables/boolean_mask/Reshape_1/shape"
  op: "Const"
  device: "/device:CPU:0"
  attr {
    key: "_output_shapes"
    value {
      list {
        shape {
          dim {
            size: 1
          }
        }
      }
    }
  }
  attr {
    key: "dtype"
    value {
      type: DT_INT32
    }
  }
  attr {
    key: "value"
    value {
      tensor {
        dtype: DT_INT32
        tensor_shape {
          dim {
            size: 1
          }
        }
        int_val: -1
      }
    }
  }
}
node {
  name: "report_uninitialized_variables/boolean_mask/Reshape_1"
  op: "Reshape"
  input: "report_uninitialized_variables/LogicalNot"
  input: "report_uninitialized_variables/boolean_mask/Reshape_1/shape"
  device: "/device:CPU:0"
  attr {
    key: "T"
    value {
      type: DT_BOOL
    }
  }
  attr {
    key: "Tshape"
    value {
      type: DT_INT32
    }
  }
  attr {
    key: "_output_shapes"
    value {
      list {
        shape {
          dim {
            size: 270
          }
        }
      }
    }
  }
}
node {
  name: "report_uninitialized_variables/boolean_mask/Where"
  op: "Where"
  input: "report_uninitialized_variables/boolean_mask/Reshape_1"
  device: "/device:CPU:0"
  attr {
    key: "T"
    value {
      type: DT_BOOL
    }
  }
  attr {
    key: "_output_shapes"
    value {
      list {
        shape {
          dim {
            size: -1
          }
          dim {
            size: 1
          }
        }
      }
    }
  }
}
node {
  name: "report_uninitialized_variables/boolean_mask/Squeeze"
  op: "Squeeze"
  input: "report_uninitialized_variables/boolean_mask/Where"
  device: "/device:CPU:0"
  attr {
    key: "T"
    value {
      type: DT_INT64
    }
  }
  attr {
    key: "_output_shapes"
    value {
      list {
        shape {
          dim {
            size: -1
          }
        }
      }
    }
  }
  attr {
    key: "squeeze_dims"
    value {
      list {
        i: 1
      }
    }
  }
}
node {
  name: "report_uninitialized_variables/boolean_mask/GatherV2/axis"
  op: "Const"
  device: "/device:CPU:0"
  attr {
    key: "_output_shapes"
    value {
      list {
        shape {
        }
      }
    }
  }
  attr {
    key: "dtype"
    value {
      type: DT_INT32
    }
  }
  attr {
    key: "value"
    value {
      tensor {
        dtype: DT_INT32
        tensor_shape {
        }
        int_val: 0
      }
    }
  }
}
node {
  name: "report_uninitialized_variables/boolean_mask/GatherV2"
  op: "GatherV2"
  input: "report_uninitialized_variables/boolean_mask/Reshape"
  input: "report_uninitialized_variables/boolean_mask/Squeeze"
  input: "report_uninitialized_variables/boolean_mask/GatherV2/axis"
  device: "/device:CPU:0"
  attr {
    key: "Taxis"
    value {
      type: DT_INT32
    }
  }
  attr {
    key: "Tindices"
    value {
      type: DT_INT64
    }
  }
  attr {
    key: "Tparams"
    value {
      type: DT_STRING
    }
  }
  attr {
    key: "_output_shapes"
    value {
      list {
        shape {
          dim {
            size: -1
          }
        }
      }
    }
  }
}
node {
  name: "init"
  op: "NoOp"
  input: "^discriminator/layer_1/conv2d/bias/Adam/Assign"
  input: "^discriminator/layer_1/conv2d/bias/Adam_1/Assign"
  input: "^discriminator/layer_1/conv2d/bias/Assign"
  input: "^discriminator/layer_1/conv2d/kernel/Adam/Assign"
  input: "^discriminator/layer_1/conv2d/kernel/Adam_1/Assign"
  input: "^discriminator/layer_1/conv2d/kernel/Assign"
  input: "^discriminator/layer_2/batch_normalization/beta/Adam/Assign"
  input: "^discriminator/layer_2/batch_normalization/beta/Adam_1/Assign"
  input: "^discriminator/layer_2/batch_normalization/beta/Assign"
  input: "^discriminator/layer_2/batch_normalization/gamma/Adam/Assign"
  input: "^discriminator/layer_2/batch_normalization/gamma/Adam_1/Assign"
  input: "^discriminator/layer_2/batch_normalization/gamma/Assign"
  input: "^discriminator/layer_2/batch_normalization/moving_mean/Assign"
  input: "^discriminator/layer_2/batch_normalization/moving_variance/Assign"
  input: "^discriminator/layer_2/conv2d/bias/Adam/Assign"
  input: "^discriminator/layer_2/conv2d/bias/Adam_1/Assign"
  input: "^discriminator/layer_2/conv2d/bias/Assign"
  input: "^discriminator/layer_2/conv2d/kernel/Adam/Assign"
  input: "^discriminator/layer_2/conv2d/kernel/Adam_1/Assign"
  input: "^discriminator/layer_2/conv2d/kernel/Assign"
  input: "^discriminator/layer_3/batch_normalization/beta/Adam/Assign"
  input: "^discriminator/layer_3/batch_normalization/beta/Adam_1/Assign"
  input: "^discriminator/layer_3/batch_normalization/beta/Assign"
  input: "^discriminator/layer_3/batch_normalization/gamma/Adam/Assign"
  input: "^discriminator/layer_3/batch_normalization/gamma/Adam_1/Assign"
  input: "^discriminator/layer_3/batch_normalization/gamma/Assign"
  input: "^discriminator/layer_3/batch_normalization/moving_mean/Assign"
  input: "^discriminator/layer_3/batch_normalization/moving_variance/Assign"
  input: "^discriminator/layer_3/conv2d/bias/Adam/Assign"
  input: "^discriminator/layer_3/conv2d/bias/Adam_1/Assign"
  input: "^discriminator/layer_3/conv2d/bias/Assign"
  input: "^discriminator/layer_3/conv2d/kernel/Adam/Assign"
  input: "^discriminator/layer_3/conv2d/kernel/Adam_1/Assign"
  input: "^discriminator/layer_3/conv2d/kernel/Assign"
  input: "^discriminator/layer_4/batch_normalization/beta/Adam/Assign"
  input: "^discriminator/layer_4/batch_normalization/beta/Adam_1/Assign"
  input: "^discriminator/layer_4/batch_normalization/beta/Assign"
  input: "^discriminator/layer_4/batch_normalization/gamma/Adam/Assign"
  input: "^discriminator/layer_4/batch_normalization/gamma/Adam_1/Assign"
  input: "^discriminator/layer_4/batch_normalization/gamma/Assign"
  input: "^discriminator/layer_4/batch_normalization/moving_mean/Assign"
  input: "^discriminator/layer_4/batch_normalization/moving_variance/Assign"
  input: "^discriminator/layer_4/conv2d/bias/Adam/Assign"
  input: "^discriminator/layer_4/conv2d/bias/Adam_1/Assign"
  input: "^discriminator/layer_4/conv2d/bias/Assign"
  input: "^discriminator/layer_4/conv2d/kernel/Adam/Assign"
  input: "^discriminator/layer_4/conv2d/kernel/Adam_1/Assign"
  input: "^discriminator/layer_4/conv2d/kernel/Assign"
  input: "^discriminator/layer_5/conv2d/bias/Adam/Assign"
  input: "^discriminator/layer_5/conv2d/bias/Adam_1/Assign"
  input: "^discriminator/layer_5/conv2d/bias/Assign"
  input: "^discriminator/layer_5/conv2d/kernel/Adam/Assign"
  input: "^discriminator/layer_5/conv2d/kernel/Adam_1/Assign"
  input: "^discriminator/layer_5/conv2d/kernel/Assign"
  input: "^discriminator_loss/Mean/ExponentialMovingAverage/Assign"
  input: "^discriminator_train/beta1_power/Assign"
  input: "^discriminator_train/beta2_power/Assign"
  input: "^generator/decoder_1/conv2d_transpose/bias/Adam/Assign"
  input: "^generator/decoder_1/conv2d_transpose/bias/Adam_1/Assign"
  input: "^generator/decoder_1/conv2d_transpose/bias/Assign"
  input: "^generator/decoder_1/conv2d_transpose/kernel/Adam/Assign"
  input: "^generator/decoder_1/conv2d_transpose/kernel/Adam_1/Assign"
  input: "^generator/decoder_1/conv2d_transpose/kernel/Assign"
  input: "^generator/decoder_2/batch_normalization/beta/Adam/Assign"
  input: "^generator/decoder_2/batch_normalization/beta/Adam_1/Assign"
  input: "^generator/decoder_2/batch_normalization/beta/Assign"
  input: "^generator/decoder_2/batch_normalization/gamma/Adam/Assign"
  input: "^generator/decoder_2/batch_normalization/gamma/Adam_1/Assign"
  input: "^generator/decoder_2/batch_normalization/gamma/Assign"
  input: "^generator/decoder_2/batch_normalization/moving_mean/Assign"
  input: "^generator/decoder_2/batch_normalization/moving_variance/Assign"
  input: "^generator/decoder_2/conv2d_transpose/bias/Adam/Assign"
  input: "^generator/decoder_2/conv2d_transpose/bias/Adam_1/Assign"
  input: "^generator/decoder_2/conv2d_transpose/bias/Assign"
  input: "^generator/decoder_2/conv2d_transpose/kernel/Adam/Assign"
  input: "^generator/decoder_2/conv2d_transpose/kernel/Adam_1/Assign"
  input: "^generator/decoder_2/conv2d_transpose/kernel/Assign"
  input: "^generator/decoder_3/batch_normalization/beta/Adam/Assign"
  input: "^generator/decoder_3/batch_normalization/beta/Adam_1/Assign"
  input: "^generator/decoder_3/batch_normalization/beta/Assign"
  input: "^generator/decoder_3/batch_normalization/gamma/Adam/Assign"
  input: "^generator/decoder_3/batch_normalization/gamma/Adam_1/Assign"
  input: "^generator/decoder_3/batch_normalization/gamma/Assign"
  input: "^generator/decoder_3/batch_normalization/moving_mean/Assign"
  input: "^generator/decoder_3/batch_normalization/moving_variance/Assign"
  input: "^generator/decoder_3/conv2d_transpose/bias/Adam/Assign"
  input: "^generator/decoder_3/conv2d_transpose/bias/Adam_1/Assign"
  input: "^generator/decoder_3/conv2d_transpose/bias/Assign"
  input: "^generator/decoder_3/conv2d_transpose/kernel/Adam/Assign"
  input: "^generator/decoder_3/conv2d_transpose/kernel/Adam_1/Assign"
  input: "^generator/decoder_3/conv2d_transpose/kernel/Assign"
  input: "^generator/decoder_4/batch_normalization/beta/Adam/Assign"
  input: "^generator/decoder_4/batch_normalization/beta/Adam_1/Assign"
  input: "^generator/decoder_4/batch_normalization/beta/Assign"
  input: "^generator/decoder_4/batch_normalization/gamma/Adam/Assign"
  input: "^generator/decoder_4/batch_normalization/gamma/Adam_1/Assign"
  input: "^generator/decoder_4/batch_normalization/gamma/Assign"
  input: "^generator/decoder_4/batch_normalization/moving_mean/Assign"
  input: "^generator/decoder_4/batch_normalization/moving_variance/Assign"
  input: "^generator/decoder_4/conv2d_transpose/bias/Adam/Assign"
  input: "^generator/decoder_4/conv2d_transpose/bias/Adam_1/Assign"
  input: "^generator/decoder_4/conv2d_transpose/bias/Assign"
  input: "^generator/decoder_4/conv2d_transpose/kernel/Adam/Assign"
  input: "^generator/decoder_4/conv2d_transpose/kernel/Adam_1/Assign"
  input: "^generator/decoder_4/conv2d_transpose/kernel/Assign"
  input: "^generator/decoder_5/batch_normalization/beta/Adam/Assign"
  input: "^generator/decoder_5/batch_normalization/beta/Adam_1/Assign"
  input: "^generator/decoder_5/batch_normalization/beta/Assign"
  input: "^generator/decoder_5/batch_normalization/gamma/Adam/Assign"
  input: "^generator/decoder_5/batch_normalization/gamma/Adam_1/Assign"
  input: "^generator/decoder_5/batch_normalization/gamma/Assign"
  input: "^generator/decoder_5/batch_normalization/moving_mean/Assign"
  input: "^generator/decoder_5/batch_normalization/moving_variance/Assign"
  input: "^generator/decoder_5/conv2d_transpose/bias/Adam/Assign"
  input: "^generator/decoder_5/conv2d_transpose/bias/Adam_1/Assign"
  input: "^generator/decoder_5/conv2d_transpose/bias/Assign"
  input: "^generator/decoder_5/conv2d_transpose/kernel/Adam/Assign"
  input: "^generator/decoder_5/conv2d_transpose/kernel/Adam_1/Assign"
  input: "^generator/decoder_5/conv2d_transpose/kernel/Assign"
  input: "^generator/decoder_6/batch_normalization/beta/Adam/Assign"
  input: "^generator/decoder_6/batch_normalization/beta/Adam_1/Assign"
  input: "^generator/decoder_6/batch_normalization/beta/Assign"
  input: "^generator/decoder_6/batch_normalization/gamma/Adam/Assign"
  input: "^generator/decoder_6/batch_normalization/gamma/Adam_1/Assign"
  input: "^generator/decoder_6/batch_normalization/gamma/Assign"
  input: "^generator/decoder_6/batch_normalization/moving_mean/Assign"
  input: "^generator/decoder_6/batch_normalization/moving_variance/Assign"
  input: "^generator/decoder_6/conv2d_transpose/bias/Adam/Assign"
  input: "^generator/decoder_6/conv2d_transpose/bias/Adam_1/Assign"
  input: "^generator/decoder_6/conv2d_transpose/bias/Assign"
  input: "^generator/decoder_6/conv2d_transpose/kernel/Adam/Assign"
  input: "^generator/decoder_6/conv2d_transpose/kernel/Adam_1/Assign"
  input: "^generator/decoder_6/conv2d_transpose/kernel/Assign"
  input: "^generator/decoder_7/batch_normalization/beta/Adam/Assign"
  input: "^generator/decoder_7/batch_normalization/beta/Adam_1/Assign"
  input: "^generator/decoder_7/batch_normalization/beta/Assign"
  input: "^generator/decoder_7/batch_normalization/gamma/Adam/Assign"
  input: "^generator/decoder_7/batch_normalization/gamma/Adam_1/Assign"
  input: "^generator/decoder_7/batch_normalization/gamma/Assign"
  input: "^generator/decoder_7/batch_normalization/moving_mean/Assign"
  input: "^generator/decoder_7/batch_normalization/moving_variance/Assign"
  input: "^generator/decoder_7/conv2d_transpose/bias/Adam/Assign"
  input: "^generator/decoder_7/conv2d_transpose/bias/Adam_1/Assign"
  input: "^generator/decoder_7/conv2d_transpose/bias/Assign"
  input: "^generator/decoder_7/conv2d_transpose/kernel/Adam/Assign"
  input: "^generator/decoder_7/conv2d_transpose/kernel/Adam_1/Assign"
  input: "^generator/decoder_7/conv2d_transpose/kernel/Assign"
  input: "^generator/decoder_8/batch_normalization/beta/Adam/Assign"
  input: "^generator/decoder_8/batch_normalization/beta/Adam_1/Assign"
  input: "^generator/decoder_8/batch_normalization/beta/Assign"
  input: "^generator/decoder_8/batch_normalization/gamma/Adam/Assign"
  input: "^generator/decoder_8/batch_normalization/gamma/Adam_1/Assign"
  input: "^generator/decoder_8/batch_normalization/gamma/Assign"
  input: "^generator/decoder_8/batch_normalization/moving_mean/Assign"
  input: "^generator/decoder_8/batch_normalization/moving_variance/Assign"
  input: "^generator/decoder_8/conv2d_transpose/bias/Adam/Assign"
  input: "^generator/decoder_8/conv2d_transpose/bias/Adam_1/Assign"
  input: "^generator/decoder_8/conv2d_transpose/bias/Assign"
  input: "^generator/decoder_8/conv2d_transpose/kernel/Adam/Assign"
  input: "^generator/decoder_8/conv2d_transpose/kernel/Adam_1/Assign"
  input: "^generator/decoder_8/conv2d_transpose/kernel/Assign"
  input: "^generator/encoder_1/conv2d/bias/Adam/Assign"
  input: "^generator/encoder_1/conv2d/bias/Adam_1/Assign"
  input: "^generator/encoder_1/conv2d/bias/Assign"
  input: "^generator/encoder_1/conv2d/kernel/Adam/Assign"
  input: "^generator/encoder_1/conv2d/kernel/Adam_1/Assign"
  input: "^generator/encoder_1/conv2d/kernel/Assign"
  input: "^generator/encoder_2/batch_normalization/beta/Adam/Assign"
  input: "^generator/encoder_2/batch_normalization/beta/Adam_1/Assign"
  input: "^generator/encoder_2/batch_normalization/beta/Assign"
  input: "^generator/encoder_2/batch_normalization/gamma/Adam/Assign"
  input: "^generator/encoder_2/batch_normalization/gamma/Adam_1/Assign"
  input: "^generator/encoder_2/batch_normalization/gamma/Assign"
  input: "^generator/encoder_2/batch_normalization/moving_mean/Assign"
  input: "^generator/encoder_2/batch_normalization/moving_variance/Assign"
  input: "^generator/encoder_2/conv2d/bias/Adam/Assign"
  input: "^generator/encoder_2/conv2d/bias/Adam_1/Assign"
  input: "^generator/encoder_2/conv2d/bias/Assign"
  input: "^generator/encoder_2/conv2d/kernel/Adam/Assign"
  input: "^generator/encoder_2/conv2d/kernel/Adam_1/Assign"
  input: "^generator/encoder_2/conv2d/kernel/Assign"
  input: "^generator/encoder_3/batch_normalization/beta/Adam/Assign"
  input: "^generator/encoder_3/batch_normalization/beta/Adam_1/Assign"
  input: "^generator/encoder_3/batch_normalization/beta/Assign"
  input: "^generator/encoder_3/batch_normalization/gamma/Adam/Assign"
  input: "^generator/encoder_3/batch_normalization/gamma/Adam_1/Assign"
  input: "^generator/encoder_3/batch_normalization/gamma/Assign"
  input: "^generator/encoder_3/batch_normalization/moving_mean/Assign"
  input: "^generator/encoder_3/batch_normalization/moving_variance/Assign"
  input: "^generator/encoder_3/conv2d/bias/Adam/Assign"
  input: "^generator/encoder_3/conv2d/bias/Adam_1/Assign"
  input: "^generator/encoder_3/conv2d/bias/Assign"
  input: "^generator/encoder_3/conv2d/kernel/Adam/Assign"
  input: "^generator/encoder_3/conv2d/kernel/Adam_1/Assign"
  input: "^generator/encoder_3/conv2d/kernel/Assign"
  input: "^generator/encoder_4/batch_normalization/beta/Adam/Assign"
  input: "^generator/encoder_4/batch_normalization/beta/Adam_1/Assign"
  input: "^generator/encoder_4/batch_normalization/beta/Assign"
  input: "^generator/encoder_4/batch_normalization/gamma/Adam/Assign"
  input: "^generator/encoder_4/batch_normalization/gamma/Adam_1/Assign"
  input: "^generator/encoder_4/batch_normalization/gamma/Assign"
  input: "^generator/encoder_4/batch_normalization/moving_mean/Assign"
  input: "^generator/encoder_4/batch_normalization/moving_variance/Assign"
  input: "^generator/encoder_4/conv2d/bias/Adam/Assign"
  input: "^generator/encoder_4/conv2d/bias/Adam_1/Assign"
  input: "^generator/encoder_4/conv2d/bias/Assign"
  input: "^generator/encoder_4/conv2d/kernel/Adam/Assign"
  input: "^generator/encoder_4/conv2d/kernel/Adam_1/Assign"
  input: "^generator/encoder_4/conv2d/kernel/Assign"
  input: "^generator/encoder_5/batch_normalization/beta/Adam/Assign"
  input: "^generator/encoder_5/batch_normalization/beta/Adam_1/Assign"
  input: "^generator/encoder_5/batch_normalization/beta/Assign"
  input: "^generator/encoder_5/batch_normalization/gamma/Adam/Assign"
  input: "^generator/encoder_5/batch_normalization/gamma/Adam_1/Assign"
  input: "^generator/encoder_5/batch_normalization/gamma/Assign"
  input: "^generator/encoder_5/batch_normalization/moving_mean/Assign"
  input: "^generator/encoder_5/batch_normalization/moving_variance/Assign"
  input: "^generator/encoder_5/conv2d/bias/Adam/Assign"
  input: "^generator/encoder_5/conv2d/bias/Adam_1/Assign"
  input: "^generator/encoder_5/conv2d/bias/Assign"
  input: "^generator/encoder_5/conv2d/kernel/Adam/Assign"
  input: "^generator/encoder_5/conv2d/kernel/Adam_1/Assign"
  input: "^generator/encoder_5/conv2d/kernel/Assign"
  input: "^generator/encoder_6/batch_normalization/beta/Adam/Assign"
  input: "^generator/encoder_6/batch_normalization/beta/Adam_1/Assign"
  input: "^generator/encoder_6/batch_normalization/beta/Assign"
  input: "^generator/encoder_6/batch_normalization/gamma/Adam/Assign"
  input: "^generator/encoder_6/batch_normalization/gamma/Adam_1/Assign"
  input: "^generator/encoder_6/batch_normalization/gamma/Assign"
  input: "^generator/encoder_6/batch_normalization/moving_mean/Assign"
  input: "^generator/encoder_6/batch_normalization/moving_variance/Assign"
  input: "^generator/encoder_6/conv2d/bias/Adam/Assign"
  input: "^generator/encoder_6/conv2d/bias/Adam_1/Assign"
  input: "^generator/encoder_6/conv2d/bias/Assign"
  input: "^generator/encoder_6/conv2d/kernel/Adam/Assign"
  input: "^generator/encoder_6/conv2d/kernel/Adam_1/Assign"
  input: "^generator/encoder_6/conv2d/kernel/Assign"
  input: "^generator/encoder_7/batch_normalization/beta/Adam/Assign"
  input: "^generator/encoder_7/batch_normalization/beta/Adam_1/Assign"
  input: "^generator/encoder_7/batch_normalization/beta/Assign"
  input: "^generator/encoder_7/batch_normalization/gamma/Adam/Assign"
  input: "^generator/encoder_7/batch_normalization/gamma/Adam_1/Assign"
  input: "^generator/encoder_7/batch_normalization/gamma/Assign"
  input: "^generator/encoder_7/batch_normalization/moving_mean/Assign"
  input: "^generator/encoder_7/batch_normalization/moving_variance/Assign"
  input: "^generator/encoder_7/conv2d/bias/Adam/Assign"
  input: "^generator/encoder_7/conv2d/bias/Adam_1/Assign"
  input: "^generator/encoder_7/conv2d/bias/Assign"
  input: "^generator/encoder_7/conv2d/kernel/Adam/Assign"
  input: "^generator/encoder_7/conv2d/kernel/Adam_1/Assign"
  input: "^generator/encoder_7/conv2d/kernel/Assign"
  input: "^generator/encoder_8/batch_normalization/beta/Adam/Assign"
  input: "^generator/encoder_8/batch_normalization/beta/Adam_1/Assign"
  input: "^generator/encoder_8/batch_normalization/beta/Assign"
  input: "^generator/encoder_8/batch_normalization/gamma/Adam/Assign"
  input: "^generator/encoder_8/batch_normalization/gamma/Adam_1/Assign"
  input: "^generator/encoder_8/batch_normalization/gamma/Assign"
  input: "^generator/encoder_8/batch_normalization/moving_mean/Assign"
  input: "^generator/encoder_8/batch_normalization/moving_variance/Assign"
  input: "^generator/encoder_8/conv2d/bias/Adam/Assign"
  input: "^generator/encoder_8/conv2d/bias/Adam_1/Assign"
  input: "^generator/encoder_8/conv2d/bias/Assign"
  input: "^generator/encoder_8/conv2d/kernel/Adam/Assign"
  input: "^generator/encoder_8/conv2d/kernel/Adam_1/Assign"
  input: "^generator/encoder_8/conv2d/kernel/Assign"
  input: "^generator_loss/Mean/ExponentialMovingAverage/Assign"
  input: "^generator_loss/Mean_1/ExponentialMovingAverage/Assign"
  input: "^generator_train/beta1_power/Assign"
  input: "^generator_train/beta2_power/Assign"
  input: "^global_step/Assign"
}
node {
  name: "init_1"
  op: "NoOp"
}
node {
  name: "init_all_tables"
  op: "NoOp"
}
node {
  name: "group_deps_1"
  op: "NoOp"
  input: "^init_1"
  input: "^init_all_tables"
}
node {
  name: "Merge/MergeSummary"
  op: "MergeSummary"
  input: "load_images/input_producer/fraction_of_32_full"
  input: "load_images/batch/fraction_of_32_full"
  input: "inputs_summary/inputs"
  input: "targets_summary/targets"
  input: "outputs_summary/outputs"
  input: "predict_real_summary/predict_real"
  input: "predict_fake_summary/predict_fake"
  input: "discriminator_loss_1"
  input: "generator_loss_GAN"
  input: "generator_loss_L1"
  input: "generator/encoder_1/conv2d/kernel/values"
  input: "generator/encoder_1/conv2d/bias/values"
  input: "generator/encoder_2/conv2d/kernel/values"
  input: "generator/encoder_2/conv2d/bias/values"
  input: "generator/encoder_2/batch_normalization/gamma/values"
  input: "generator/encoder_2/batch_normalization/beta/values"
  input: "generator/encoder_3/conv2d/kernel/values"
  input: "generator/encoder_3/conv2d/bias/values"
  input: "generator/encoder_3/batch_normalization/gamma/values"
  input: "generator/encoder_3/batch_normalization/beta/values"
  input: "generator/encoder_4/conv2d/kernel/values"
  input: "generator/encoder_4/conv2d/bias/values"
  input: "generator/encoder_4/batch_normalization/gamma/values"
  input: "generator/encoder_4/batch_normalization/beta/values"
  input: "generator/encoder_5/conv2d/kernel/values"
  input: "generator/encoder_5/conv2d/bias/values"
  input: "generator/encoder_5/batch_normalization/gamma/values"
  input: "generator/encoder_5/batch_normalization/beta/values"
  input: "generator/encoder_6/conv2d/kernel/values"
  input: "generator/encoder_6/conv2d/bias/values"
  input: "generator/encoder_6/batch_normalization/gamma/values"
  input: "generator/encoder_6/batch_normalization/beta/values"
  input: "generator/encoder_7/conv2d/kernel/values"
  input: "generator/encoder_7/conv2d/bias/values"
  input: "generator/encoder_7/batch_normalization/gamma/values"
  input: "generator/encoder_7/batch_normalization/beta/values"
  input: "generator/encoder_8/conv2d/kernel/values"
  input: "generator/encoder_8/conv2d/bias/values"
  input: "generator/encoder_8/batch_normalization/gamma/values"
  input: "generator/encoder_8/batch_normalization/beta/values"
  input: "generator/decoder_8/conv2d_transpose/kernel/values"
  input: "generator/decoder_8/conv2d_transpose/bias/values"
  input: "generator/decoder_8/batch_normalization/gamma/values"
  input: "generator/decoder_8/batch_normalization/beta/values"
  input: "generator/decoder_7/conv2d_transpose/kernel/values"
  input: "generator/decoder_7/conv2d_transpose/bias/values"
  input: "generator/decoder_7/batch_normalization/gamma/values"
  input: "generator/decoder_7/batch_normalization/beta/values"
  input: "generator/decoder_6/conv2d_transpose/kernel/values"
  input: "generator/decoder_6/conv2d_transpose/bias/values"
  input: "generator/decoder_6/batch_normalization/gamma/values"
  input: "generator/decoder_6/batch_normalization/beta/values"
  input: "generator/decoder_5/conv2d_transpose/kernel/values"
  input: "generator/decoder_5/conv2d_transpose/bias/values"
  input: "generator/decoder_5/batch_normalization/gamma/values"
  input: "generator/decoder_5/batch_normalization/beta/values"
  input: "generator/decoder_4/conv2d_transpose/kernel/values"
  input: "generator/decoder_4/conv2d_transpose/bias/values"
  input: "generator/decoder_4/batch_normalization/gamma/values"
  input: "generator/decoder_4/batch_normalization/beta/values"
  input: "generator/decoder_3/conv2d_transpose/kernel/values"
  input: "generator/decoder_3/conv2d_transpose/bias/values"
  input: "generator/decoder_3/batch_normalization/gamma/values"
  input: "generator/decoder_3/batch_normalization/beta/values"
  input: "generator/decoder_2/conv2d_transpose/kernel/values"
  input: "generator/decoder_2/conv2d_transpose/bias/values"
  input: "generator/decoder_2/batch_normalization/gamma/values"
  input: "generator/decoder_2/batch_normalization/beta/values"
  input: "generator/decoder_1/conv2d_transpose/kernel/values"
  input: "generator/decoder_1/conv2d_transpose/bias/values"
  input: "discriminator/layer_1/conv2d/kernel/values"
  input: "discriminator/layer_1/conv2d/bias/values"
  input: "discriminator/layer_2/conv2d/kernel/values"
  input: "discriminator/layer_2/conv2d/bias/values"
  input: "discriminator/layer_2/batch_normalization/gamma/values"
  input: "discriminator/layer_2/batch_normalization/beta/values"
  input: "discriminator/layer_3/conv2d/kernel/values"
  input: "discriminator/layer_3/conv2d/bias/values"
  input: "discriminator/layer_3/batch_normalization/gamma/values"
  input: "discriminator/layer_3/batch_normalization/beta/values"
  input: "discriminator/layer_4/conv2d/kernel/values"
  input: "discriminator/layer_4/conv2d/bias/values"
  input: "discriminator/layer_4/batch_normalization/gamma/values"
  input: "discriminator/layer_4/batch_normalization/beta/values"
  input: "discriminator/layer_5/conv2d/kernel/values"
  input: "discriminator/layer_5/conv2d/bias/values"
  input: "discriminator/layer_1/conv2d/kernel/gradients"
  input: "discriminator/layer_1/conv2d/bias/gradients"
  input: "discriminator/layer_2/conv2d/kernel/gradients"
  input: "discriminator/layer_2/conv2d/bias/gradients"
  input: "discriminator/layer_2/batch_normalization/gamma/gradients"
  input: "discriminator/layer_2/batch_normalization/beta/gradients"
  input: "discriminator/layer_3/conv2d/kernel/gradients"
  input: "discriminator/layer_3/conv2d/bias/gradients"
  input: "discriminator/layer_3/batch_normalization/gamma/gradients"
  input: "discriminator/layer_3/batch_normalization/beta/gradients"
  input: "discriminator/layer_4/conv2d/kernel/gradients"
  input: "discriminator/layer_4/conv2d/bias/gradients"
  input: "discriminator/layer_4/batch_normalization/gamma/gradients"
  input: "discriminator/layer_4/batch_normalization/beta/gradients"
  input: "discriminator/layer_5/conv2d/kernel/gradients"
  input: "discriminator/layer_5/conv2d/bias/gradients"
  input: "generator/encoder_1/conv2d/kernel/gradients"
  input: "generator/encoder_1/conv2d/bias/gradients"
  input: "generator/encoder_2/conv2d/kernel/gradients"
  input: "generator/encoder_2/conv2d/bias/gradients"
  input: "generator/encoder_2/batch_normalization/gamma/gradients"
  input: "generator/encoder_2/batch_normalization/beta/gradients"
  input: "generator/encoder_3/conv2d/kernel/gradients"
  input: "generator/encoder_3/conv2d/bias/gradients"
  input: "generator/encoder_3/batch_normalization/gamma/gradients"
  input: "generator/encoder_3/batch_normalization/beta/gradients"
  input: "generator/encoder_4/conv2d/kernel/gradients"
  input: "generator/encoder_4/conv2d/bias/gradients"
  input: "generator/encoder_4/batch_normalization/gamma/gradients"
  input: "generator/encoder_4/batch_normalization/beta/gradients"
  input: "generator/encoder_5/conv2d/kernel/gradients"
  input: "generator/encoder_5/conv2d/bias/gradients"
  input: "generator/encoder_5/batch_normalization/gamma/gradients"
  input: "generator/encoder_5/batch_normalization/beta/gradients"
  input: "generator/encoder_6/conv2d/kernel/gradients"
  input: "generator/encoder_6/conv2d/bias/gradients"
  input: "generator/encoder_6/batch_normalization/gamma/gradients"
  input: "generator/encoder_6/batch_normalization/beta/gradients"
  input: "generator/encoder_7/conv2d/kernel/gradients"
  input: "generator/encoder_7/conv2d/bias/gradients"
  input: "generator/encoder_7/batch_normalization/gamma/gradients"
  input: "generator/encoder_7/batch_normalization/beta/gradients"
  input: "generator/encoder_8/conv2d/kernel/gradients"
  input: "generator/encoder_8/conv2d/bias/gradients"
  input: "generator/encoder_8/batch_normalization/gamma/gradients"
  input: "generator/encoder_8/batch_normalization/beta/gradients"
  input: "generator/decoder_8/conv2d_transpose/kernel/gradients"
  input: "generator/decoder_8/conv2d_transpose/bias/gradients"
  input: "generator/decoder_8/batch_normalization/gamma/gradients"
  input: "generator/decoder_8/batch_normalization/beta/gradients"
  input: "generator/decoder_7/conv2d_transpose/kernel/gradients"
  input: "generator/decoder_7/conv2d_transpose/bias/gradients"
  input: "generator/decoder_7/batch_normalization/gamma/gradients"
  input: "generator/decoder_7/batch_normalization/beta/gradients"
  input: "generator/decoder_6/conv2d_transpose/kernel/gradients"
  input: "generator/decoder_6/conv2d_transpose/bias/gradients"
  input: "generator/decoder_6/batch_normalization/gamma/gradients"
  input: "generator/decoder_6/batch_normalization/beta/gradients"
  input: "generator/decoder_5/conv2d_transpose/kernel/gradients"
  input: "generator/decoder_5/conv2d_transpose/bias/gradients"
  input: "generator/decoder_5/batch_normalization/gamma/gradients"
  input: "generator/decoder_5/batch_normalization/beta/gradients"
  input: "generator/decoder_4/conv2d_transpose/kernel/gradients"
  input: "generator/decoder_4/conv2d_transpose/bias/gradients"
  input: "generator/decoder_4/batch_normalization/gamma/gradients"
  input: "generator/decoder_4/batch_normalization/beta/gradients"
  input: "generator/decoder_3/conv2d_transpose/kernel/gradients"
  input: "generator/decoder_3/conv2d_transpose/bias/gradients"
  input: "generator/decoder_3/batch_normalization/gamma/gradients"
  input: "generator/decoder_3/batch_normalization/beta/gradients"
  input: "generator/decoder_2/conv2d_transpose/kernel/gradients"
  input: "generator/decoder_2/conv2d_transpose/bias/gradients"
  input: "generator/decoder_2/batch_normalization/gamma/gradients"
  input: "generator/decoder_2/batch_normalization/beta/gradients"
  input: "generator/decoder_1/conv2d_transpose/kernel/gradients"
  input: "generator/decoder_1/conv2d_transpose/bias/gradients"
  attr {
    key: "N"
    value {
      i: 162
    }
  }
  attr {
    key: "_output_shapes"
    value {
      list {
        shape {
        }
      }
    }
  }
}
versions {
  producer: 27
}
